model/model_epoch10_3cohorts.pt (torch, 711343 bytes, 617 tensors)

weight f4 [10, 5]
0	0xbec3aef3	-0.38219413
1	0xbdabd4ad	-0.08390174
2	0xbe7d052f	-0.24709009
3	0xbe1b007e	-0.15136907
4	0xbebfa958	-0.37433887
5	0x3e275a9f	0.16343163
6	0xbed65123	-0.41858777
7	0xbd3a4322	-0.04547418
8	0x3dfd9e18	0.123836696
9	0xbe239130	-0.15973353
10	0x3e777eb1	0.24169423
11	0x3d0dca62	0.034616835
12	0x3e81c6f8	0.25347114
13	0x3e9b7ce5	0.30368724
14	0xbe36e101	-0.1785927
15	0x3e292a4d	0.16520043
16	0xbe267601	-0.16255952
17	0x3deb2d6e	0.114832744
18	0xbe819ba5	-0.2531406
19	0x3e7fd3db	0.2498316
20	0x3d965a2a	0.07341416
21	0xbe3a4f94	-0.18194419
22	0xbe68469a	-0.22683182
23	0x3e16adc9	0.14714731
24	0x3ed1355d	0.40861025
25	0x3e5cc5f6	0.21559891
26	0xbd46760b	-0.04845242
27	0xbc88a1e6	-0.016678762
28	0x3e86e683	0.2634774
29	0xbe986134	-0.2976166
30	0x3e1eef7f	0.15521048
31	0xbe1d360c	-0.15352648
32	0x3e69c36a	0.22828451
33	0xbe5cd546	-0.21565732
34	0x3c84a9ed	0.016194308
35	0x3e1de569	0.15419544
36	0x3ea6469b	0.32475743
37	0xbdb65017	-0.08901995
38	0x3ed27c1a	0.41110307
39	0xbeb408f3	-0.35163078
40	0xbd8d4fe0	-0.069000006
41	0xbeee1f4a	-0.46508247
42	0x3d836f53	0.06417718
43	0x3ddf9e16	0.109188244
44	0xbe2ca9eb	-0.16861694
45	0x3e38da5b	0.18052046
46	0xbdbf9246	-0.09354071
47	0xbec05303	-0.37563333
48	0x3ec3ad86	0.38218325
49	0x3e5fe1ec	0.21863526

bias f4 [10]
0	0x3e6c604d	0.23083611
1	0x3ec95d48	0.3932898
2	0x3e3c1190	0.18366075
3	0x3e763a41	0.2404566
4	0x3ec69f8e	0.38793606
5	0xbd9c3946	-0.076281115
6	0xbea9da88	-0.3317454
7	0xbe82de26	-0.2556011
8	0xbd58b49d	-0.05290662
9	0xbce7bb81	-0.028287651

weight f4 [10, 19]
0	0xbe3b08de	-0.18265101
1	0x3dfdd579	0.12394232
2	0xbe6b796a	-0.22995535
3	0xbdceb49b	-0.100930415
4	0xbe3161b7	-0.17322432
5	0x3d603726	0.054740094
6	0x3ba9ce1f	0.0051820423
7	0xbdcd2d0c	-0.10018358
8	0x3e061e39	0.13097467
9	0x3e687aee	0.22703144
10	0x3dfe570c	0.124189466
11	0xbe09786d	-0.13424845
12	0x3e66651a	0.22499505
13	0x3cebe1b3	0.028794145
14	0x3d01c4da	0.031681873
15	0x3e386aeb	0.18009536
16	0xbe533430	-0.20625377
17	0x3e4b7ef4	0.19872648
18	0xbd448538	-0.04797861
19	0xbdb903f4	-0.09033957
20	0xbc98618a	-0.018601198
21	0xbe454ea1	-0.19268276
22	0xbc2e7ba1	-0.010649593
23	0x3d7a3d97	0.061093893
24	0xbdfdb295	-0.123875774
25	0xbc3040de	-0.010757653
26	0xbdc58145	-0.09643797
27	0x3dfe233d	0.12409065
28	0x3e50f6ab	0.20406596
29	0x3d42315e	0.04741036
30	0x3e194a2f	0.14969705
31	0xbe681191	-0.22662951
32	0x3c990798	0.018680379
33	0x3e01deb7	0.12682615
34	0xbd3b97e4	-0.04579915
35	0x3e59bf41	0.21264364
36	0xbe8e78a7	-0.27826425
37	0xbd3371be	-0.043809645
38	0x3e172b2a	0.1476256
39	0x3cce58e9	0.02518888
40	0x3cc0898f	0.023503093
41	0x3da73ba3	0.08165672
42	0x3a304eb5	0.00067255954
43	0x3e800979	0.25007227
44	0xbe4cf6a1	-0.20015956
45	0x3d06147c	0.03273438
46	0x3e1df626	0.1542593
47	0xbe1c5348	-0.15266144
48	0xbe69ec5c	-0.2284407
49	0x3cc7fbb7	0.02441202
50	0x3deb764e	0.11497174
51	0xbdfdb8ec	-0.12388787
52	0xbd9ded81	-0.07711316
53	0xbdd90ea3	-0.10598495
54	0x3e3144e7	0.1731144
55	0x3d6826ca	0.056677617
56	0xbe41b54a	-0.18916813
57	0x3e4cccf4	0.20000058
58	0x3d4dc659	0.050237987
59	0xbe37f056	-0.17962775
60	0x3d145e52	0.036222763
61	0xbdcb000d	-0.09912119
62	0xbe00dde6	-0.12584648
63	0xbdf8bbc5	-0.12145189
64	0xbe57f659	-0.21090068
65	0x3e10ea5e	0.14151904
66	0x3d534c9e	0.05158674
67	0x3e140e88	0.14458668
68	0xbd507ad3	-0.050898384
69	0xbe077865	-0.1322952
70	0xbe2e0caa	-0.16997018
71	0xbcff54d6	-0.031168383
72	0x3d09cb05	0.03364088
73	0xbe341332	-0.17585447
74	0x3e4bb16b	0.19891898
75	0x3cb15bf0	0.021650285
76	0x3e1be990	0.15225816
77	0x3e0d514b	0.13800542
78	0x3d80c92c	0.062883705
79	0x3e2d75d3	0.16939478
80	0xbe24c091	-0.16089083
81	0x3d241031	0.040054504
82	0xbe043cb3	-0.1291378
83	0xbe30bcb6	-0.17259488
84	0xbda1dd82	-0.079035774
85	0x3d4a8db4	0.049451545
86	0xbdad794c	-0.08470401
87	0xbcbce8d0	-0.023060232
88	0x3e1cee37	0.15325247
89	0x3e324a26	0.17411098
90	0x3da5a687	0.08088403
91	0xbdaeda3a	-0.08537717
92	0xbe45d7ec	-0.19320649
93	0xbd06b62a	-0.03288857
94	0x3e31689f	0.17325066
95	0xbac42b08	-0.0014966438
96	0xbde9e97f	-0.11421489
97	0x3e25e2bb	0.16199772
98	0x3d920d20	0.0713141
99	0xbd0e5868	-0.03475228
100	0x3b9f2229	0.004856367
101	0x3e49187b	0.19638245
102	0xbe03872f	-0.12844537
103	0x3e1dfe04	0.1542893
104	0x3d5909e0	0.052987933
105	0xbdfb94a3	-0.122842096
106	0xbe550119	-0.208012
107	0xbe33d0c6	-0.1756011
108	0xbcfd6a10	-0.030934364
109	0xbdfd4919	-0.12367458
110	0xbe1b0f95	-0.15142663
111	0xbe3a90c7	-0.1821929
112	0x3e1e36c4	0.15450579
113	0xbe41befe	-0.18920514
114	0x3db35c18	0.087578
115	0x3b1b954d	0.0023740113
116	0xbcbf3291	-0.023339542
117	0x3e231b0d	0.15928288
118	0xbe0edc0c	-0.13951129
119	0x3de290f7	0.11062806
120	0xbe24e6a9	-0.16103615
121	0xbcabe794	-0.020984448
122	0xbe462577	-0.19350229
123	0x3dd9fdc8	0.10644108
124	0xbd8ffe09	-0.07030875
125	0x3e6a92de	0.22907588
126	0x3dcd61d9	0.100284286
127	0x3dda7dc9	0.10668523
128	0xbe262d80	-0.16228294
129	0x3e2b118c	0.16705912
130	0x3e6d0f99	0.23150481
131	0xbe1810bf	-0.14850138
132	0xbd27cc27	-0.04096618
133	0x3e3b5e94	0.18297797
134	0xbcd0fb85	-0.025510559
135	0x3d7331cd	0.059373666
136	0xbda52dea	-0.08065398
137	0x3e28d537	0.16487585
138	0xbce80322	-0.028321806
139	0xbd6b81b5	-0.057496745
140	0x3dd52109	0.104066916
141	0x3d51d052	0.05122406
142	0xbd5cc4c5	-0.05389859
143	0xbdbf0b31	-0.093283065
144	0xbe3095ce	-0.17244646
145	0xbe449ca7	-0.19200383
146	0xbe1b2048	-0.15149033
147	0x3caff5e7	0.02147956
148	0xbd5786b0	-0.052618682
149	0x3c72bd5a	0.014815653
150	0x3dcb220d	0.09918604
151	0x3b8590e6	0.004076111
152	0x3e468141	0.19385244
153	0x3db636c4	0.088971645
154	0x3e32f1f3	0.17475109
155	0xbe061620	-0.13094378
156	0x3dc79e1b	0.09746953
157	0xbb2c2a12	-0.0026270193
158	0xbe491f2f	-0.19640802
159	0xbe088ff9	-0.13336171
160	0xbe55c699	-0.2087654
161	0x3e14a217	0.14514957
162	0xbcec894b	-0.02887406
163	0xbe1c340e	-0.15254232
164	0x3c030d4e	0.007998778
165	0x3de7f9ea	0.11326964
166	0x3d883c69	0.06652147
167	0xbe6006f7	-0.21877657
168	0xbc81ae86	-0.01583029
169	0xbc851c1e	-0.016248759
170	0xbe18bffe	-0.14916989
171	0x3e2a81fd	0.16651149
172	0xbde68135	-0.11255113
173	0xbd6ca516	-0.057774626
174	0x3e582fce	0.21111986
175	0x3dcadef1	0.09905804
176	0xbc518625	-0.01278833
177	0xbdf990da	-0.12185831
178	0xbd905b61	-0.07048679
179	0xbe7653aa	-0.24055353
180	0xbd8599ca	-0.065234736
181	0x3d6045f3	0.05475421
182	0x3db0c194	0.08630672
183	0xbe42fc56	-0.19041571
184	0xbe1f2cf2	-0.15544489
185	0x3e6a88c4	0.22903734
186	0xbe20f0b3	-0.1571682
187	0xbe411bb5	-0.18858226
188	0x3e4ded00	0.2010994
189	0x3e0d4b50	0.1379826

bias f4 [10]
0	0x3e677116	0.22601733
1	0xbd936326	-0.071966454
2	0x3e20127e	0.15632054
3	0x3e51cf9d	0.20489354
4	0xbdd55e1e	-0.10418342
5	0x3d7be63e	0.061498873
6	0x3d4d9c9c	0.050198182
7	0xbdd406d4	-0.10352865
8	0x3c9e1ebf	0.01930177
9	0xbe4015e3	-0.18758349

weight f4 [10, 17]
0	0x3e4f952d	0.2027175
1	0x3dad99c8	0.08476597
2	0x3e7c6e4d	0.24651451
3	0x3dec4e89	0.11538417
4	0xbe42cde3	-0.19023852
5	0x3d1208de	0.035652988
6	0x3e440735	0.19143374
7	0x3e3f884d	0.18704338
8	0x3ddf878e	0.10914527
9	0xbe7ddbc3	-0.24790864
10	0x3e4ef2e5	0.20209844
11	0x3e486661	0.19570304
12	0x3daabb18	0.083364666
13	0xbe1897b9	-0.14901628
14	0x3d2bf4e1	0.04198158
15	0xbdac0b88	-0.08400637
16	0x3d903dcd	0.070430376
17	0xbe254037	-0.16137777
18	0xbb7e5474	-0.0038807662
19	0xbd96327a	-0.073338464
20	0x3d994c2c	0.07485232
21	0x3e243caf	0.16038774
22	0xbdafa340	-0.08576059
23	0x3da43560	0.08017993
24	0xbdff0792	-0.12452616
25	0xbd61630b	-0.055026095
26	0xbe27cb37	-0.16386114
27	0x3d4e2e12	0.050336905
28	0x3e46f582	0.19429591
29	0xbe376662	-0.1791015
30	0x3e0c2a5d	0.13688035
31	0x3e83c8f1	0.25739244
32	0xbdbef0a3	-0.093232416
33	0x3c8c5793	0.017131602
34	0xbd8a16d3	-0.067426346
35	0xbe326099	-0.17419662
36	0x3dbbced0	0.09170306
37	0xbe12edd8	-0.14348543
38	0x3e3e5559	0.18587245
39	0x3d1e726c	0.03868334
40	0x3e4ed189	0.20197119
41	0x3e4b3081	0.19842722
42	0xbce37c39	-0.027769195
43	0x3c132003	0.0089798
44	0xbe066ad9	-0.13126697
45	0x3c52abc5	0.012858336
46	0x3e667073	0.22503833
47	0xbd64fbdc	-0.055904254
48	0xbe2f8dac	-0.17143887
49	0x3dba73d6	0.09104125
50	0x3e0e21ae	0.13880035
51	0xbe4e9e1f	-0.20177506
52	0x3dfe99a8	0.12431651
53	0xbe1a8246	-0.15088758
54	0x3e12d9b4	0.1434086
55	0x3e523617	0.20528446
56	0xbe29075e	-0.16506717
57	0xbe33a347	-0.17542754
58	0xbd55f537	-0.05223581
59	0xbe2f4db4	-0.17119485
60	0x3e14402b	0.14477603
61	0xbd9ce655	-0.0766112
62	0x3e517212	0.2045367
63	0x3e726298	0.23670423
64	0xbc29e262	-0.010368915
65	0xbe385305	-0.1800042
66	0x3db66090	0.089051366
67	0x3e07ebbb	0.13273518
68	0x3e602b43	0.21891503
69	0xbe3c670e	-0.18398687
70	0xbe20bf78	-0.1569804
71	0xbe1bf8e9	-0.1523167
72	0xbd8064f6	-0.06269257
73	0x3da6b9dc	0.081409186
74	0x3e76a805	0.24087532
75	0xbaa3f73a	-0.0012509592
76	0xbe729fab	-0.23693721
77	0x3d00f62e	0.031484775
78	0xbe8ea51d	-0.27860346
79	0x3e5c63b4	0.21522409
80	0xbe6a81fd	-0.22901149
81	0xbe1ff5d7	-0.15621124
82	0xbe41fcee	-0.18944141
83	0x3e405b2a	0.18784776
84	0xbdd48f24	-0.103788644
85	0x3d5bcb7b	0.05366085
86	0xbdeaebf8	-0.11470789
87	0x3c8f9d5a	0.017531086
88	0xbc7c6d8b	-0.015406976
89	0xbb55a73a	-0.0032600896
90	0x3dfb203c	0.122620076
91	0xbc6d574f	-0.014486148
92	0xbe599d5e	-0.21251437
93	0xbd29709b	-0.041367155
94	0x3d95eb63	0.07320287
95	0x3dcd5b25	0.1002715
96	0xbdf1b462	-0.118019834
97	0xbe421b24	-0.18955666
98	0xbcb73e3e	-0.022368547
99	0x3e205ef7	0.15661226
100	0x3d9b2c97	0.07576864
101	0x3e620dd7	0.22075592
102	0xbd84a7dd	-0.0647733
103	0xbe795c93	-0.2435172
104	0x3e18bf5a	0.14916745
105	0x3cd9e22c	0.026597105
106	0xbe875cfe	-0.26438135
107	0x3e7329d0	0.23746419
108	0xbc277b5a	-0.01022228
109	0xbe56a16d	-0.20960017
110	0xbcbce60f	-0.02305892
111	0xbda89b94	-0.08232799
112	0xbe375913	-0.17905073
113	0x3e2bb282	0.16767314
114	0x3e004f25	0.12530191
115	0xbdc12b2f	-0.09432065
116	0xbe1aa973	-0.15103702
117	0xbcc17d3a	-0.023619283
118	0xbdd2b9e4	-0.10289362
119	0xbe2951c8	-0.16535103
120	0xbe705796	-0.23470911
121	0xbe6689fa	-0.22513571
122	0xbe1843a7	-0.14869557
123	0x3e3224ef	0.17396902
124	0x3da1302a	0.07870515
125	0xbcdd0c5f	-0.026983438
126	0x3992222b	0.00027872747
127	0x3e7ad719	0.24496116
128	0x3d8daeaf	0.06918084
129	0xbdee7cd2	-0.11644901
130	0x3e1cfdc8	0.15331185
131	0x3d6f93df	0.05849063
132	0x3e139b7a	0.14414778
133	0x3d40a6f4	0.04703422
134	0x3e03cee1	0.12871887
135	0x3d2c56c0	0.04207492
136	0x3d8b4170	0.067995906
137	0xbda4b8e9	-0.08043081
138	0x3e45059d	0.19240423
139	0x3af3618c	0.00185685
140	0x3d0a3481	0.033741478
141	0x3e322388	0.17396367
142	0xbd2d5bd9	-0.04232392
143	0x3d5766fc	0.052588448
144	0x3de5a904	0.11213878
145	0xbaed9134	-0.0018124939
146	0x3da937a3	0.08262565
147	0xbd144a91	-0.036203925
148	0x3e280da0	0.16411448
149	0xbe0da190	-0.13831162
150	0x3e564f7b	0.20928757
151	0x3e22dd86	0.15904817
152	0x3e680d65	0.2266136
153	0xbd8b1115	-0.067903675
154	0xbda3a2e5	-0.07990054
155	0x3bb39d68	0.005481411
156	0x3d83d60f	0.06437313
157	0x3e39e01c	0.18151897
158	0xbe1ed902	-0.1551247
159	0xbd76d8f7	-0.060265508
160	0x3e54ac0a	0.20768753
161	0xbd7fc186	-0.062440418
162	0x3e362f67	0.1779152
163	0xbe6b67e3	-0.22988848
164	0x3d940546	0.07227568
165	0xbe57a101	-0.21057512
166	0x3e31ac6b	0.17350928
167	0x3e227a52	0.15866974
168	0x3e3d5413	0.18489103
169	0x3a81ed5f	0.0009912661

bias f4 [10]
0	0xbe7902e3	-0.24317507
1	0x3d951e5e	0.07281183
2	0xbd3f46e6	-0.046698473
3	0xbda870e5	-0.08224658
4	0x3c988451	0.01861778
5	0x3df98520	0.12183595
6	0xbdc8105c	-0.09768745
7	0xbdef699a	-0.11690064
8	0x3cdb98cc	0.026806258
9	0x3d0921af	0.03347939

weight f4 [10, 6]
0	0x3ce75fa0	0.02824384
1	0x3e6789ae	0.22611114
2	0x3db1d957	0.086840324
3	0xbe987734	-0.29778445
4	0xbe301e4b	-0.17199056
5	0xbd4ba259	-0.049715374
6	0x3e503fc5	0.20336826
7	0xbe19e2a9	-0.1502787
8	0xbe2e622e	-0.1702964
9	0xbca8286b	-0.020527085
10	0xbe1301e7	-0.14356194
11	0xbdc7bdd0	-0.09753001
12	0xbec0ea3c	-0.37678707
13	0x3eb2b56d	0.34904042
14	0x3e5d9c8c	0.21641749
15	0xbe72b815	-0.23703034
16	0xbe8f346b	-0.2796968
17	0x3d025231	0.031816665
18	0x3e69e5ea	0.22841612
19	0xbe9bc2c4	-0.30422032
20	0xbe3513b1	-0.17683293
21	0x3e206210	0.15662408
22	0xbe722443	-0.23646645
23	0xbd37e591	-0.044896666
24	0xbeb0211d	-0.34400263
25	0x3ebb1c8c	0.36545217
26	0x3e7507c0	0.23928738
27	0xbea137dd	-0.31487933
28	0xbe785bc4	-0.24253756
29	0x3df1f48a	0.1181422
30	0x3ccbce50	0.02487865
31	0x3de49d97	0.111628704
32	0xbec788c1	-0.38971522
33	0xbe6765e0	-0.22597456
34	0x3e0c7093	0.13714819
35	0xbe984b00	-0.2974472
36	0xbdc14b21	-0.09438158
37	0x3e34e09a	0.17663804
38	0x3e6746bc	0.22585577
39	0x3da1129d	0.07864878
40	0x3da22845	0.07917837
41	0x3e3cf270	0.18451858
42	0xbd465414	-0.048420027
43	0xbdbdb7da	-0.092635825
44	0x3e9517c7	0.29119703
45	0x3eded491	0.4352155
46	0x3e2f595a	0.17123929
47	0xbe464e9e	-0.19365928
48	0xbeab1962	-0.33417803
49	0xbec18945	-0.3780004
50	0x3c9c5bff	0.019086836
51	0xbe168728	-0.14699996
52	0xbe180a8d	-0.14847775
53	0xbd963e82	-0.07336141
54	0x3ed4d6bc	0.4157008
55	0x3ebeccf0	0.3726573
56	0xbda31815	-0.07963578
57	0xbe228e1e	-0.15874526
58	0x3e17d8e5	0.14828832
59	0xbd46a5dd	-0.048498023

bias f4 [10]
0	0xbeb0c7d7	-0.34527466
1	0x3e11df9d	0.14245458
2	0x3eb81181	0.35950854
3	0xbeb110de	-0.3458318
4	0xbdbedfc6	-0.09320025
5	0x3deb9fff	0.11505126
6	0xbeafcbb0	-0.3433509
7	0xbeb89d0b	-0.36057314
8	0x3e92afe6	0.28649825
9	0xbe3b1b63	-0.18272166

weight f4 [10, 8]
0	0x3db5e323	0.088812135
1	0xbe68963e	-0.22713563
2	0xbc3c07f4	-0.011476506
3	0x3dea6cd0	0.114465356
4	0xbd68c432	-0.05682773
5	0x3e5db9cd	0.21652909
6	0x3d20d879	0.039268944
7	0x3df62166	0.12018089
8	0xbe9b3963	-0.3031722
9	0x3d08a04d	0.033356
10	0xbe19343f	-0.14961337
11	0xbe92c99e	-0.28669447
12	0xbeb1ec37	-0.3475053
13	0x3e80b7a2	0.251401
14	0xbeb9aba4	-0.36263764
15	0x3e5d7cfb	0.21629708
16	0xbc5bdcf9	-0.013419383
17	0xbd31b9ab	-0.043389957
18	0x3e478aa8	0.19486487
19	0xbe94dcdc	-0.29074752
20	0xbdb43d78	-0.08800787
21	0x3e91ece0	0.28501034
22	0xbeac395a	-0.33637506
23	0x3a4ddab1	0.0007852717
24	0x3e9103aa	0.28323108
25	0x3db480f0	0.088136554
26	0x3ea53614	0.3226782
27	0x3ebbf062	0.36706835
28	0x3df25449	0.11832482
29	0x3d82fe27	0.06396132
30	0xbc93959a	-0.018015672
31	0x3ebba294	0.36647475
32	0x3c30c943	0.010790172
33	0xbdcfd89f	-0.10148739
34	0x3e2f59e0	0.17124128
35	0xbe4dec9d	-0.20109792
36	0x3c576026	0.013145482
37	0xbe9a078d	-0.30083886
38	0xbda78821	-0.081802614
39	0xbdfb17d8	-0.12260407
40	0x3ea4eab3	0.3221031
41	0x3e3c55c5	0.18392093
42	0x3ddce6e7	0.107862286
43	0x3e49f4f9	0.19722356
44	0xbe482135	-0.19543917
45	0xbebb3858	-0.36566424
46	0x3e0e6c4a	0.13908496
47	0x3e308064	0.17236477
48	0x3e72bdda	0.23705235
49	0x3e2ba61a	0.16762581
50	0xbe0d29b1	-0.13785435
51	0xbe87b4a6	-0.2650501
52	0x3dae36f2	0.08506574
53	0x3e06beb5	0.13158686
54	0x3ea62213	0.32447872
55	0xbda0d394	-0.07852855
56	0xbe7ba147	-0.24573241
57	0x3e77428a	0.24146476
58	0xbe9e02d9	-0.30861548
59	0xbe89f3d6	-0.26943845
60	0xbe1f3015	-0.15545686
61	0xbd46fc48	-0.048580438
62	0xbe5fc90f	-0.21854042
63	0x3d179770	0.037009656
64	0xbc2b4957	-0.010454497
65	0xbe47134f	-0.1944096
66	0xbdb5f49b	-0.088845454
67	0x3deb3072	0.114838496
68	0xbe8d57e5	-0.2760612
69	0xbe239312	-0.15974072
70	0xbe5327fe	-0.20620725
71	0xbea06ee3	-0.313346
72	0xbe3e0e6e	-0.18560192
73	0x3e0d67ae	0.13809082
74	0x3e829cf2	0.25510365
75	0xbcb0d712	-0.021586929
76	0xbe675b7f	-0.22593497
77	0xbe24b2bd	-0.16083808
78	0xbc95d6fb	-0.018290987
79	0x3e6f0a1c	0.233437

bias f4 [10]
0	0x3e6734c8	0.22578728
1	0xbe893e52	-0.2680536
2	0xbddea592	-0.10871424
3	0x3e3f118e	0.1865904
4	0x3eb1e42d	0.34744397
5	0xbe710cb2	-0.23539999
6	0x3e115a4e	0.14194605
7	0x3e009c9b	0.1255974
8	0xbe79c115	-0.24390061
9	0x3db192f4	0.08670607

weight f4 [26, 53]
0	0xbd935ce0	-0.07195449
1	0x3d5904ca	0.052983083
2	0xbc33299c	-0.010935213
3	0xbdace446	-0.08441977
4	0x3d5e462a	0.054266132
5	0xbdafb0f0	-0.0857867
6	0x3d31997d	0.04335927
7	0x3d88b709	0.06675536
8	0xbcfe2a70	-0.031026095
9	0xbc9ba5ec	-0.019000016
10	0x3dcadd95	0.09905545
11	0xbbd5c821	-0.0065241014
12	0xbd9a50a4	-0.07534912
13	0x3d8eedb0	0.06978929
14	0x3d00ddf8	0.031461686
15	0x3dd8856a	0.10572322
16	0x3d8c1557	0.06840008
17	0x3dd75719	0.105146594
18	0xbc81b8e4	-0.015835233
19	0xbdf0154a	-0.117228106
20	0x3ded3890	0.11583054
21	0xbda03b54	-0.07823816
22	0x3d296645	0.041357297
23	0x3ddf3616	0.10898988
24	0x3d974539	0.0738625
25	0xbd840972	-0.06447114
26	0xbcc2639e	-0.023729142
27	0xbda1372f	-0.078718536
28	0xbda199d9	-0.07890672
29	0x3d4addc1	0.049527887
30	0xbd9ba62c	-0.07600054
31	0xbdeaabb7	-0.11458533
32	0xbdf6f2ce	-0.1205803
33	0x3d28ec9b	0.04124127
34	0x3df3e069	0.11908037
35	0x3df1bfe7	0.118041806
36	0x3d957b0c	0.0729886
37	0x3d5714bc	0.05251001
38	0xbd6798f9	-0.05654237
39	0x3dd09279	0.101841874
40	0x3d915a0e	0.07097255
41	0x3cc70143	0.024292594
42	0xbc392d58	-0.011302315
43	0xbdf11c81	-0.11773015
44	0x3e23ca8a	0.15995231
45	0xbdb912cd	-0.09036789
46	0x3deedee1	0.116636045
47	0xbd648f1a	-0.055800535
48	0xbdb16a50	-0.086628556
49	0x3e250fc4	0.16119295
50	0xbe1d7d5a	-0.15379849
51	0x3c9d5905	0.019207487
52	0xbdd4a7bd	-0.10383556
53	0xbd991fd2	-0.07476772
54	0x3d9a2e43	0.07528355
55	0x3d1cb2a7	0.038256314
56	0xbce3dbd3	-0.027814781
57	0x3d4a81e9	0.0494403
58	0xbdd190ff	-0.10232734
59	0x3e2c9bb5	0.16856273
60	0xbd81fe4c	-0.063473314
61	0x3d919a61	0.071095236
62	0xbc3e1cf0	-0.011603579
63	0xbce360ee	-0.02775618
64	0x3db0f1d3	0.08639874
65	0xbdefb709	-0.11704833
66	0xbc0f9c18	-0.008765243
67	0xbd6c327d	-0.057665337
68	0xbd0b62da	-0.03402982
69	0xbd4235d4	-0.047414616
70	0x3ce500cc	0.027954482
71	0x3dd24c01	0.10268403
72	0x3dd8e80a	0.10591133
73	0x3dade8c9	0.08491666
74	0x3de89dff	0.1135826
75	0x3bb85fea	0.005626668
76	0xbdcef534	-0.101053625
77	0xbc92883d	-0.01788723
78	0xbdf52df9	-0.11971659
79	0xbdde6c83	-0.10860541
80	0xbdb5c608	-0.08875662
81	0xbd3817ea	-0.04494468
82	0xbd8d345c	-0.068947524
83	0x3d5bd3f9	0.05366895
84	0x3c3d1c51	0.011542396
85	0x3c4ddfb8	0.012565546
86	0x3dc06f8d	0.093962766
87	0xbd0e9edc	-0.03481947
88	0xbd78eb70	-0.060771406
89	0xbe09603c	-0.13415617
90	0xbdeda6c4	-0.11604074
91	0xbdab4cb4	-0.08364239
92	0x3daea58e	0.08527671
93	0x3d196516	0.03744992
94	0x3e2360d5	0.15954907
95	0xbdf1ab3a	-0.11800237
96	0xbdcb2031	-0.099182494
97	0xbdda66d0	-0.10664141
98	0x3c3273a9	0.010891833
99	0x3d87608a	0.0661021
100	0x3d59ffef	0.053222593
101	0x3dcb7bbc	0.0993571
102	0x3cd51ddd	0.026015216
103	0x3d592097	0.053009596
104	0x3da2eb83	0.079550765
105	0xbde2b6b2	-0.110700026
106	0xbdc6ee88	-0.09713465
107	0x3ddc3cef	0.1075381
108	0xbd1829de	-0.037149303
109	0xbdb1b5e6	-0.086772725
110	0x39c0e043	0.00036788182
111	0x3cfa22ea	0.030534226
112	0x3d123d4d	0.035702992
113	0xbd203458	-0.03911242
114	0x3e04db74	0.1297434
115	0xbcb6b761	-0.022304239
116	0x3db11526	0.08646612
117	0xbd930335	-0.07178346
118	0xbe021e0c	-0.12706774
119	0x3dfd1810	0.12358105
120	0xbe03ba10	-0.12863946
121	0xbd415bf2	-0.047206827
122	0xbd4540e0	-0.048157573
123	0x3df3ce48	0.119045794
124	0xbd840340	-0.064459324
125	0xbde07e64	-0.10961607
126	0xbd1f887d	-0.038948525
127	0x3da67c3f	0.08129167
128	0x3da17761	0.07884098
129	0xbcdc5304	-0.026895054
130	0xbcaaa732	-0.020831678
131	0x3e273cd2	0.16331795
132	0xbe0cc8fe	-0.13748547
133	0x3db53dc4	0.088496715
134	0xbd193f3b	-0.037413817
135	0xbdde9aab	-0.10869344
136	0xbdc87c87	-0.09789377
137	0x3d9eb955	0.07750193
138	0x3d75ff7f	0.060058113
139	0xbc753d07	-0.014968163
140	0x3d8ce416	0.068794414
141	0x3d5d131f	0.053973313
142	0xbd3e4a5a	-0.046457626
143	0xbdd1882c	-0.10231051
144	0x3c499de2	0.012305709
145	0x3de30e3d	0.110867
146	0xbc5070eb	-0.012722234
147	0xb97c732e	-0.000240755
148	0x3d5a960d	0.053365756
149	0x3bb70352	0.0055851126
150	0x3dd1d4bc	0.10245654
151	0xbca56191	-0.020188125
152	0xbdcc3afc	-0.09972188
153	0x3e154c75	0.14579947
154	0xbd39faab	-0.04540507
155	0x3caecbf2	0.021337483
156	0xbdafa038	-0.08575481
157	0x3ce5a6c0	0.028033614
158	0x3c74d35e	0.014942972
159	0x3d81667c	0.063183755
160	0x3dca8050	0.09887755
161	0x3cf084a5	0.029360125
162	0x3db18fc5	0.0867
163	0x3dcc0465	0.09961776
164	0x3d793b3b	0.060847502
165	0xbd0cd3d1	-0.03438169
166	0xbddb3a38	-0.10704464
167	0xbd2794e1	-0.040913466
168	0xbd0a88a0	-0.033821702
169	0xbdafc6b6	-0.08582823
170	0x3ce75d0c	0.02824261
171	0xbda071fa	-0.07834239
172	0x3dfe157a	0.1240644
173	0x3e23b0cd	0.15985413
174	0xbc33c205	-0.010971551
175	0x3da60b96	0.081076786
176	0x3cc78b38	0.024358377
177	0x3aa812c9	0.0012822981
178	0x3e1d6366	0.15369949
179	0xba023e36	-0.00049683766
180	0x3d9b322f	0.07577931
181	0x3d5f7a46	0.05455997
182	0x3d4c5c73	0.049892854
183	0x3dbce0f6	0.092225954
184	0x3db3a2b8	0.087712705
185	0x3d158444	0.03650309
186	0xbcd45924	-0.025921412
187	0x3d955a21	0.07292581
188	0x3dc95835	0.09831277
189	0x3d8f0ba7	0.069846444
190	0x3b0cd7ee	0.0021491009
191	0x3d8e11a0	0.069369555
192	0xbdf0adc9	-0.11751897
193	0xbe1f8465	-0.15577848
194	0x3dbb42bc	0.09143588
195	0x3e04e305	0.12977226
196	0x3b9635d9	0.004584056
197	0xbb8a8444	-0.004227193
198	0x3e2b14c5	0.16707142
199	0xbdeee45f	-0.11664652
200	0x3d7eb4c1	0.0621841
201	0xbc680931	-0.014162348
202	0x3d849dc4	0.06475404
203	0xbdd30a8e	-0.103047475
204	0xbe02203a	-0.12707606
205	0x3c95df7f	0.018295048
206	0xbb9c7d69	-0.0047756922
207	0xbcb929b9	-0.022602903
208	0xbd0c40ba	-0.034241416
209	0x3e00342f	0.12519906
210	0x3da2ac0a	0.0794297
211	0xbd51346d	-0.051075388
212	0xbdba7b15	-0.09105507
213	0x3dca677d	0.0988302
214	0xbd86c2c7	-0.065801196
215	0x3da6bf29	0.0814193
216	0xbe05f14f	-0.13080333
217	0xbd19db0e	-0.037562422
218	0x3dbb150d	0.091348745
219	0xbdaaea3e	-0.083454594
220	0xbd421cdf	-0.047390815
221	0xbd9a1997	-0.07524412
222	0xbd95fd46	-0.07323699
223	0xbdbdc27e	-0.09265612
224	0xbde51d66	-0.11187248
225	0xbc62f181	-0.013851524
226	0x3b881608	0.004153017
227	0xbd9656ee	-0.07340799
228	0x3d12794a	0.0357602
229	0xbdb5aa86	-0.088704154
230	0x3d8c8334	0.068609625
231	0x3c0cbf72	0.008590566
232	0x3da0bdd7	0.07848709
233	0x3d59f0e2	0.05320824
234	0xbd2709e1	-0.040780906
235	0xbc82107a	-0.015876997
236	0xbcc4213e	-0.023941632
237	0xbda49f31	-0.08038176
238	0xbcce7396	-0.0252016
239	0xbe0387dd	-0.12844796
240	0xba2ca745	-0.00065862044
241	0xbdef8e8f	-0.11697113
242	0x3df9b08f	0.12191879
243	0xbdbbb01e	-0.09164451
244	0xbe024da9	-0.12724937
245	0x3e0a4b19	0.1350521
246	0xbd205b4c	-0.039149567
247	0x3de8ed86	0.11373429
248	0xbde638ea	-0.11241324
249	0x3ba63407	0.00507212
250	0x3e1bf42f	0.15229867
251	0xbc3b3b72	-0.011427747
252	0x3d9b8bd3	0.07595029
253	0xbcff828a	-0.031190176
254	0x3e11d9ba	0.14243212
255	0x3d7f9c37	0.062404837

bias f4 [26]
0	0xbe335e3d	-0.17516418
1	0xbdf25606	-0.11832814
2	0x3dd622cf	0.10455858
3	0xbe001bdc	-0.12510628
4	0x3e02da1d	0.12778516
5	0x3d990f26	0.074735925
6	0x3d68851e	0.056767575
7	0x3c19632e	0.009362025
8	0x3d4eaa95	0.05045565
9	0x3e082e16	0.1329883
10	0xbd286287	-0.041109588
11	0x3c5ac799	0.013353252
12	0x3d06d84e	0.032921128
13	0xbd61b491	-0.055103842
14	0x3ddc605b	0.10760566
15	0x3cda8e99	0.026679324
16	0xbd2b2665	-0.041784663
17	0x3d48ed87	0.04905465
18	0xbdcbe028	-0.09954864
19	0xbd8c771f	-0.06858658
20	0x3daedf9f	0.08538746
21	0x3df61292	0.12015261
22	0xbca1ca8c	-0.019749902
23	0xbdd9bc02	-0.10631563
24	0x3cf7c49d	0.03024512
25	0xbd884d43	-0.066553615

weight f4 [29, 57]
0	0xbc7a8c4f	-0.015292241
1	0x3bf8e904	0.007596137
2	0x3e074a13	0.13211851
3	0xbd87e444	-0.06635335
4	0x3dc1d5b4	0.09464589
5	0x3dcf2a2e	0.10115467
6	0x3db6e56c	0.089304775
7	0x3dc606ce	0.09669267
8	0xbe1fda9a	-0.15610734
9	0x3c4d19f2	0.012518393
10	0xbe043fdc	-0.12914985
11	0x3d38cb79	0.04511592
12	0xbbcf804d	-0.0063324333
13	0x3d6f8608	0.05847743
14	0x3d4394a2	0.04774917
15	0xbdcca569	-0.09992487
16	0xbe04c253	-0.12964754
17	0x3c92dcd0	0.017927557
18	0xbdf063a4	-0.11737755
19	0x3dbc3a5a	0.09190817
20	0x3d5675f8	0.052358598
21	0x3d9a15f0	0.075237155
22	0xbe1c52a5	-0.15265901
23	0xbd7c3c63	-0.061581027
24	0x3ccb8f6d	0.024848664
25	0x3d97b991	0.07408441
26	0xbdb72e98	-0.08944434
27	0xbda1595c	-0.07878372
28	0x3ce99326	0.028512549
29	0x3e101037	0.14068685
30	0x3d6e34f6	0.058155976
31	0xbd7ef2c3	-0.062243234
32	0xbdde3886	-0.10850625
33	0xbd88a380	-0.0667181
34	0xbdf5d596	-0.12003629
35	0x3d44d4e5	0.048054595
36	0x3d3824e8	0.04495707
37	0xbb2b0585	-0.002609582
38	0xbd14c42f	-0.036319908
39	0x3d900c02	0.0703354
40	0xbd644224	-0.05572714
41	0x3d4d1fe5	0.050079245
42	0xbd9fba8e	-0.07799254
43	0xbdb97d62	-0.09057118
44	0xbd15fcfb	-0.036618214
45	0xbd137796	-0.036002718
46	0x3cbb98c5	0.022899995
47	0x3d4baa41	0.049722914
48	0xbd93c27e	-0.07214831
49	0x3d803ebe	0.06261967
50	0xbd45a285	-0.048250694
51	0xbde7adee	-0.11312471
52	0xbb94c7b3	-0.0045404076
53	0x3d324dce	0.04353123
54	0xbdf4336a	-0.11923869
55	0xbdc80119	-0.09765834
56	0xba5f15e1	-0.0008510035
57	0x3d85c431	0.06531561
58	0xbdca5b90	-0.098807454
59	0x3ccfce9f	0.02536708
60	0x3d6e5145	0.058182973
61	0xbd9e5ea8	-0.07732898
62	0xbde0f8bc	-0.10984942
63	0xbdb1596a	-0.086596325
64	0xbc3cd66a	-0.01152573
65	0xbbc90c03	-0.006135465
66	0xbd9041c2	-0.07043792
67	0xbd9489ed	-0.0725287
68	0x3c3956c7	0.011312193
69	0xbd023f07	-0.03179839
70	0xbe088a74	-0.13334066
71	0xbdf1ef11	-0.118131764
72	0x3e07157c	0.1319179
73	0x3d8b3b97	0.06798475
74	0xbe1f0a73	-0.1553133
75	0xbd860698	-0.065442264
76	0x3df48043	0.119385265
77	0x3d604df1	0.05476183
78	0x3c39e213	0.011345404
79	0xbd90e129	-0.07074196
80	0xbdb0063a	-0.085949376
81	0xbd4b575e	-0.049643867
82	0x3d66e56b	0.056371134
83	0x3d92fc7a	0.07177062
84	0xbc6d4193	-0.014480966
85	0x3d90406b	0.07043537
86	0x3dbdbb28	0.09264213
87	0xbe01b652	-0.12667206
88	0xbe176cde	-0.14787623
89	0x3d67a49b	0.056553464
90	0x3d01e04d	0.03170805
91	0xbdf39220	-0.118931055
92	0xbdb354fa	-0.08756442
93	0xbca67bfe	-0.020322796
94	0x3d89c8fd	0.067277886
95	0xbe1cc888	-0.15310872
96	0xbe001526	-0.12508067
97	0xbdc179f4	-0.09447089
98	0xbe1808e5	-0.14847143
99	0x3dfbe01f	0.12298607
100	0xbddb7d40	-0.10717249
101	0x3e35afca	0.1774284
102	0x3d4045fe	0.04694175
103	0xbd89f38f	-0.06735908
104	0xbdc56ee5	-0.09640292
105	0x3daf9d70	0.08574951
106	0xbcfc2c1a	-0.030782748
107	0x3d8be86e	0.06831442
108	0xbd7b1a40	-0.06130433
109	0xbe074239	-0.13208856
110	0x3d200a2c	0.0390722
111	0xbd48b3b7	-0.048999514
112	0x3dc45d2d	0.09588084
113	0x3dba980a	0.091110304
114	0x3d18f89a	0.03734646
115	0x3da52d9f	0.08065342
116	0xbd91e66b	-0.07124027
117	0xbd881e38	-0.06646389
118	0xbd4d5b88	-0.05013612
119	0xbd68675d	-0.0567392
120	0x3da0e673	0.07856455
121	0x3dee8ed8	0.11648339
122	0xbd82db3d	-0.06389473
123	0x3da2a70e	0.079420194
124	0x3d69e0b3	0.057099055
125	0xbdbb76ad	-0.09153495
126	0x3e12f01b	0.14349405
127	0xbbc2299e	-0.0059253713
128	0xbe22656b	-0.15859
129	0xbd562642	-0.05228258
130	0xbb621b30	-0.0034501068
131	0xbd17f998	-0.037103266
132	0xbd82f398	-0.06394118
133	0xbc9acb07	-0.01889564
134	0xbdb1d359	-0.086828895
135	0xbdb95a29	-0.090504
136	0x3e231217	0.1592487
137	0x3d8d6096	0.06903188
138	0xbdc3c6e0	-0.09559417
139	0x3de3f7a2	0.111312166
140	0xbcc8b37e	-0.024499651
141	0xbd371022	-0.04469312
142	0xbd86c6c5	-0.06580881
143	0x3d6eba39	0.058283065
144	0x3d088ee1	0.033339385
145	0x3d56003d	0.05224632
146	0xbde57174	-0.1120328
147	0x3d205274	0.039141133
148	0x3d373cb4	0.044735625
149	0x3d78af4f	0.060714062
150	0xbd2f3167	-0.042771723
151	0xbd0ff623	-0.035146844
152	0xbe11b0e6	-0.14227638
153	0x3e0e9b0b	0.13926332
154	0xbd9ec12c	-0.07751688
155	0x3db7df77	0.089781694
156	0xbde8bfaf	-0.11364686
157	0xbdfd8df7	-0.12380593
158	0x3d80ea59	0.06294698
159	0x3d538af8	0.051646203
160	0xbe207c85	-0.156725
161	0xbd2af35e	-0.041736
162	0xbc462dbb	-0.012095864
163	0xbdac008a	-0.0839854
164	0x3dc33df7	0.09533303
165	0x3d93143e	0.07181595
166	0xba9a5202	-0.0011773708
167	0x3e19e8ea	0.15030256
168	0x3dca7281	0.09885121
169	0xbde46586	-0.111521766
170	0xbd7f01df	-0.062257644
171	0x3e0bf35b	0.13667051
172	0xbd6e1da4	-0.058133736
173	0xbca7c584	-0.020479925
174	0x3d73dc1d	0.05953609
175	0xbc8309e2	-0.015995923
176	0x3d31019f	0.043214437
177	0xbdabbbd6	-0.08385436
178	0xbe15c2df	-0.14625119
179	0xbda996a0	-0.082806826
180	0xbda72a6b	-0.081623875
181	0x3dc495ad	0.09598861
182	0x3ccb5067	0.024818612
183	0x3cb04284	0.021516092
184	0xbd802e93	-0.06258883
185	0xbdcae15d	-0.09906266
186	0xbdac488c	-0.08412275
187	0xbdd49aed	-0.10381112
188	0xbc66cff1	-0.014087663
189	0xbc9dbdc9	-0.019255536
190	0x3d698630	0.057012737
191	0xbbe2934d	-0.0069145323
192	0x3daca80f	0.08430492
193	0xbdee7c08	-0.11644751
194	0x3db6cdf4	0.08926001
195	0xbd6b125e	-0.057390563
196	0x3e26db18	0.16294515
197	0x3d8728bd	0.06599567
198	0xbe0b9247	-0.13630019
199	0x3e00d849	0.12582506
200	0xbdd03693	-0.10166659
201	0x3dbc7847	0.092026286
202	0x3da74a43	0.08168461
203	0x3c8c11e3	0.017098373
204	0x3d893ba8	0.06700832
205	0x3d277c8b	0.040890258
206	0x3be0cb7d	0.006860195
207	0x3c67fd39	0.014159494
208	0x3db483e5	0.088142194
209	0xbde81bd7	-0.11333435
210	0xbdd2c187	-0.10290819
211	0x3d430053	0.04760773
212	0x3e51c77c	0.20486253
213	0xbd6101a0	-0.05493319
214	0x3d315cc8	0.043301374
215	0x3d80e3ed	0.062934734
216	0x3e269a31	0.16269757
217	0x3d6f6209	0.058443103
218	0xbda1751b	-0.07883664
219	0x3e0ea424	0.13929802
220	0xbaad60a1	-0.001322765
221	0xbc3b5fdf	-0.011436432
222	0xbdccb2c9	-0.09995038
223	0xbbf68a7d	-0.0075238333
224	0x3d95b322	0.073095575
225	0x3c14a9f2	0.009073721
226	0xbd45a85e	-0.04825627
227	0xbced20d0	-0.02894631
228	0xbc9fff79	-0.019530999
229	0xbd4dcdc0	-0.050245047
230	0xbcc14535	-0.02359257
231	0xbc650b00	-0.013979673
232	0xbc400cf9	-0.011721843
233	0xbdff19ef	-0.12456118
234	0x3db51c72	0.08843316
235	0x3e096cb7	0.13420378
236	0xbd80126f	-0.06253516
237	0x3d497219	0.049181078
238	0xbd99233f	-0.07477426
239	0x3db724b2	0.08942546
240	0xbdc77f3e	-0.097410664
241	0xbcd7d711	-0.026347669
242	0x3cd29e70	0.025710315
243	0xbd07f592	-0.03319318
244	0x3d212207	0.03933909
245	0xbd90d9a5	-0.070727624
246	0x3d3e057a	0.04639194
247	0x3e1bffd8	0.15234315
248	0xbe0c20bc	-0.13684362
249	0x3dbb5821	0.09147669
250	0x3c5f9964	0.013647411
251	0xbd8946c7	-0.06702953
252	0x3e2327e0	0.1593318
253	0xbe1b7950	-0.15182996
254	0xbc6e1331	-0.014530943
255	0x3b981e68	0.0046422966

bias f4 [29]
0	0xbd991393	-0.074744366
1	0x3d843650	0.06455672
2	0xbe087211	-0.13324763
3	0xbd9996a9	-0.07499439
4	0xbd090a85	-0.033457298
5	0xbdd3019a	-0.1030304
6	0xbda39ad6	-0.07988517
7	0xbcc4030c	-0.023927234
8	0x3ca435bc	0.020045154
9	0xbd47de54	-0.048796013
10	0x3cc5a5cd	0.024126912
11	0x3d5b828b	0.053591292
12	0xbd2871f3	-0.041124295
13	0xbd3af497	-0.045643415
14	0x3caff0b8	0.021477088
15	0x3db73a93	0.08946719
16	0x3df6fa13	0.120594166
17	0x3d659c85	0.05605747
18	0x3d6b4a14	0.057443693
19	0xbd29df12	-0.041472502
20	0x3b668e6c	0.0035180105
21	0xbd83b37a	-0.06430717
22	0x3c35267c	0.011056539
23	0x3e00e27c	0.12586397
24	0x3d4aa23a	0.049471118
25	0x3d8e1d38	0.06939167
26	0xbd13e181	-0.03610373
27	0x3d7f4f80	0.062331676
28	0x3dc1796d	0.09446988

weight f4 [25, 58]
0	0xbdd3f09b	-0.10348626
1	0xbddce6a7	-0.10786181
2	0x3e0315f3	0.12801342
3	0x3c1b1d57	0.009467444
4	0x3c6059b3	0.013693261
5	0x3e11cef3	0.14239101
6	0x3d9dd141	0.07705928
7	0x3cb0c12f	0.021576492
8	0xbb956386	-0.0045589833
9	0xbdaf2bb2	-0.08553256
10	0xbcdedd08	-0.027205005
11	0xbd179c27	-0.037014153
12	0x3dab525e	0.0836532
13	0x3df94171	0.12170685
14	0x3d50d758	0.050986618
15	0xbe150f79	-0.14556684
16	0x3b50ce84	0.0031861374
17	0x3ca0bc5b	0.019621065
18	0x3dbee433	0.09320869
19	0xbe0670f1	-0.13129021
20	0xbd82ddb4	-0.06389943
21	0x3d098f57	0.033583965
22	0x3cef5c8b	0.029218933
23	0xbe1c8379	-0.15284528
24	0xbe04c7f9	-0.12966909
25	0x3d8dc295	0.06921879
26	0x3cb6a67f	0.022296188
27	0xbda98c0c	-0.08278665
28	0x3c926d4d	0.017874384
29	0x3c847dc1	0.016173245
30	0xbe17ab09	-0.14811338
31	0xbd262df5	-0.04057117
32	0x3b9c7ac1	0.0047753756
33	0xbdb19164	-0.08670309
34	0xbd388391	-0.045047347
35	0x3d0957ec	0.033531114
36	0xbd5b94df	-0.05360877
37	0xbe2fdfa1	-0.17175151
38	0x3cce09da	0.025151182
39	0x3d474274	0.04864736
40	0xbc51b191	-0.012798683
41	0x3bf93856	0.0076055927
42	0xbdaac3cf	-0.08338129
43	0x3d6408cd	0.055672456
44	0x3d0bf608	0.03417018
45	0xbd076b3e	-0.03306126
46	0xbdb80374	-0.08985034
47	0x3cce6383	0.025193935
48	0x3d8361f1	0.06415165
49	0x3bc63570	0.0060488507
50	0xbe04e6aa	-0.12978616
51	0x3d54ca1b	0.051950555
52	0x3d2e5446	0.04256084
53	0xbd66a677	-0.056311097
54	0xbd8b3a7c	-0.067982644
55	0x3dfa5381	0.12222958
56	0xbd265901	-0.040612224
57	0x3cdb6e2c	0.026785932
58	0xbd85ac4d	-0.065270044
59	0x3db5106b	0.08841022
60	0x3c50903d	0.012729702
61	0x3dafd8c0	0.08586264
62	0xbc278816	-0.0102253165
63	0xbdd58446	-0.1042562
64	0x3df42cad	0.11922584
65	0x3beafe9c	0.007171465
66	0xbd187019	-0.03721628
67	0x3db886aa	0.0901006
68	0x3e0fdd83	0.14049344
69	0xbde272be	-0.110570416
70	0x3de71254	0.11282793
71	0x3d03cc29	0.032177124
72	0x3da772ff	0.08176231
73	0xbdfc9c83	-0.1233454
74	0xbe082d02	-0.13298419
75	0x3cb72c0c	0.02235987
76	0x3da66dd1	0.081264146
77	0x3c85b525	0.016321728
78	0xbdbbbe2b	-0.09167131
79	0xbd93c862	-0.07215954
80	0x3d7ef6a1	0.062246922
81	0x3c462e98	0.01209607
82	0x3db9c612	0.09070982
83	0xbcfb5ba4	-0.030683346
84	0x3cdd87b1	0.027042242
85	0x3dd6c850	0.10487425
86	0x3df74a93	0.12074771
87	0x3c687024	0.014186893
88	0xbe07e45e	-0.13270709
89	0x3dea904e	0.11453305
90	0x3d33e949	0.04392365
91	0xbdd00455	-0.10157076
92	0x3d975169	0.07388575
93	0x3ca4cd62	0.020117465
94	0x3df761df	0.12079214
95	0x3ce58078	0.02801536
96	0x3d9bb902	0.07603647
97	0xbc9d9dcb	-0.01924028
98	0x3db64e9a	0.08901711
99	0x3db761ac	0.08954176
100	0x3e0228ad	0.12710829
101	0x3e0ac172	0.13550356
102	0xbd144648	-0.036199838
103	0x3dbafd62	0.0913036
104	0xbd1c15a8	-0.03810659
105	0xbdc67650	-0.09690535
106	0xbdb7d924	-0.08976963
107	0xbd43811a	-0.047730543
108	0x3d0c1be2	0.03420628
109	0xbd007297	-0.03135928
110	0xbda99db4	-0.082820326
111	0xbdcee45a	-0.10102148
112	0x3dda681d	0.10664389
113	0xbd5baaf4	-0.05362983
114	0xbe00d010	-0.1257937
115	0x3c5bc569	0.0134137655
116	0x3e03ef90	0.12884355
117	0xbc65b661	-0.014020533
118	0xbb138d4f	-0.0022514646
119	0x3d2a7db6	0.041623794
120	0xbbb0713c	-0.0053845923
121	0x3dbb80e9	0.09155447
122	0xbd11d182	-0.035600193
123	0x3d49ec11	0.049297396
124	0x3dc66781	0.096877106
125	0xbe1b5a97	-0.15171276
126	0xbe043f32	-0.12914732
127	0xbc58b5c0	-0.013226926
128	0xbdfba064	-0.122864515
129	0x3df9c4a7	0.121957116
130	0xbce014d0	-0.027353674
131	0xbd1d7eb5	-0.038450915
132	0xbdbb00bf	-0.09131002
133	0x3e0da02c	0.13830632
134	0xbdda6933	-0.106645964
135	0x3df852e9	0.12125189
136	0xbd0447be	-0.03229498
137	0xbdd435da	-0.10361834
138	0xbe0d6c5b	-0.13810866
139	0x3dbf9207	0.093540244
140	0xbda23f28	-0.07922202
141	0xbc82e2b5	-0.015977243
142	0x3c09531e	0.008381633
143	0x3cbd57cc	0.023113154
144	0x3d61d26a	0.055132307
145	0x3d8a566d	0.06754766
146	0xbd1d3eed	-0.03839009
147	0x3bf1a169	0.007373978
148	0xbd6b7984	-0.057488933
149	0x3d4232f7	0.047411885
150	0xbe0863e4	-0.13319355
151	0xbdc00862	-0.09376599
152	0x3e03b115	0.1286052
153	0xbdf695d2	-0.12040295
154	0xbd6b1b40	-0.057399035
155	0x3d28991c	0.04116164
156	0x3dad0d9a	0.0844986
157	0x3d2616e7	0.040549185
158	0xbd81844c	-0.06324062
159	0xbd99e180	-0.07513714
160	0x3cca0127	0.024658753
161	0xbe00f590	-0.12593675
162	0x3c2b1284	0.010441426
163	0xbd1697bf	-0.03676581
164	0xbcb20aa2	-0.021733586
165	0xbdfba104	-0.12286571
166	0x3d86a2ff	0.06574058
167	0x3de4fb4b	0.11180743
168	0x3da91b13	0.08257117
169	0xbcde6628	-0.027148321
170	0xbe0bfe51	-0.13671233
171	0xbc4c29d1	-0.012461142
172	0xbdd96286	-0.10614495
173	0x3df65362	0.12027623
174	0xbe137f23	-0.14403968
175	0x3d788998	0.060678095
176	0x3ddbf41d	0.1073992
177	0xbda492cf	-0.08035814
178	0x3c889139	0.01667081
179	0x3d9c7abe	0.07640599
180	0xbe161769	-0.14657368
181	0xbdb18a77	-0.08668988
182	0x3dd88c42	0.10573627
183	0x3d844f8e	0.06460486
184	0xbddfdd76	-0.10930912
185	0x3c05c505	0.008164649
186	0x3cfc4f3b	0.030799499
187	0xbd8c9b47	-0.06865554
188	0x3d8411e4	0.06448725
189	0x3dad7d10	0.084711194
190	0x3c9e5abe	0.019330379
191	0x3d9145cd	0.070933916
192	0xbcf9e613	-0.030505216
193	0x3e143526	0.144734
194	0x3d6fcc50	0.058544457
195	0x3de5b89f	0.11216854
196	0x3c7d0773	0.015443671
197	0xbd37a1b7	-0.044831958
198	0xbd53941e	-0.051654927
199	0xbbb8f2ea	-0.005644192
200	0xbe2b6258	-0.16736734
201	0xbcc56c22	-0.024099413
202	0x3d05cccf	0.032666024
203	0xbe3834d9	-0.1798891
204	0xbe175c2b	-0.14781253
205	0x3b8da5ea	0.004322757
206	0x3d00e90b	0.031472247
207	0x3deb5752	0.114912644
208	0x3d4dd5f2	0.050252862
209	0xbd0bbcee	-0.034115724
210	0xbda4c45f	-0.08045267
211	0xbd141b98	-0.036159128
212	0xbd8751f7	-0.066074304
213	0xbdc9c0d2	-0.09851231
214	0xbd9e6d7d	-0.07735727
215	0xbb714b0a	-0.0036818408
216	0x3dded253	0.1087996
217	0x3de77f50	0.1130358
218	0x3e158c1a	0.14604226
219	0xbde1e7e4	-0.11030558
220	0x3c7e0d65	0.015506123
221	0xbcc2560a	-0.023722667
222	0xbd540149	-0.051759038
223	0xbe0492d0	-0.1294663
224	0x3d10159f	0.03517687
225	0x3ddb1877	0.10698026
226	0xbe1264fb	-0.14296333
227	0xbdbe68db	-0.09297343
228	0x3d2aaf38	0.041671008
229	0x3d4961b7	0.049165454
230	0xbd957510	-0.072977185
231	0x3d889381	0.06668759
232	0xbde51d3d	-0.111872174
233	0xbca3095f	-0.01990193
234	0x3a6810f1	0.0008852622
235	0xbc500cdc	-0.012698378
236	0xbc9e2710	-0.019305736
237	0xbb98fc66	-0.00466876
238	0x3d025b58	0.031825393
239	0x3e083de9	0.13304867
240	0xbd95dbb8	-0.07317299
241	0x3cf670a6	0.030083012
242	0xbc184304	-0.0092933215
243	0x3dc62fd2	0.0967709
244	0xbda774ff	-0.08176612
245	0xbddd0891	-0.107926495
246	0xbdb6e112	-0.089296475
247	0xbd3bd352	-0.045855828
248	0x3cdf3352	0.027246151
249	0x3d5c0f70	0.05372566
250	0x3dab465a	0.08363028
251	0x3d0f5ec8	0.0350025
252	0xbd7535a6	-0.059865616
253	0x3d9c542c	0.07633242
254	0x3dce1d0a	0.100641325
255	0xbdf131c5	-0.11777071

bias f4 [25]
0	0x3d605a75	0.054773767
1	0xbc4f1263	-0.012638661
2	0xbd273f48	-0.040831834
3	0x3d6b0382	0.057376392
4	0x3ce4a925	0.027912686
5	0x3daf0cf4	0.085473925
6	0x3c9f6e4d	0.019461775
7	0x3e08b552	0.13350418
8	0xbcde7217	-0.027154012
9	0xbd442070	-0.047882497
10	0xbde41d77	-0.111384325
11	0xbd931e39	-0.07183499
12	0xbd00728d	-0.031359244
13	0x3d7fd226	0.062456273
14	0x3bdd1f82	0.006748141
15	0xbcbda8a7	-0.023151709
16	0xbb22d4de	-0.0024846117
17	0xbdbcdc6f	-0.09221732
18	0x3d24e905	0.040261287
19	0x3e077122	0.1322675
20	0xbd80565b	-0.06266471
21	0xbc8b45c0	-0.017001033
22	0x3d87edce	0.066371545
23	0xbdb0b0b1	-0.08627451
24	0xbd8845d4	-0.06653944

weight f4 [10, 17]
0	0xbe059f86	-0.13049135
1	0x3e030abe	0.12797067
2	0xbe71fd8f	-0.23631881
3	0xbe829a6b	-0.25508437
4	0x3e7af60a	0.24507919
5	0x3e69da47	0.22837172
6	0xbd24b5fb	-0.040212613
7	0xbe7e253d	-0.24818893
8	0x3dc1662e	0.09443317
9	0x3e570221	0.20996906
10	0x3d29597f	0.041345116
11	0x3e65481e	0.22390792
12	0x3ddf6d68	0.109095395
13	0xbe5c1467	-0.21492158
14	0x3dde2ab5	0.108479895
15	0x3e677401	0.22602846
16	0x3de62b3d	0.11238716
17	0xbd23b849	-0.03997067
18	0x3e4c9d39	0.1998185
19	0xbda754c5	-0.081704654
20	0xbe10e759	-0.14150752
21	0xbdb32748	-0.08747727
22	0x3d06d5b3	0.032918643
23	0xbaa30bf4	-0.0012439475
24	0x3e15d58b	0.14632241
25	0x3e5f72af	0.21821092
26	0x3db83fcf	0.089965455
27	0x3c26a0b0	0.010170147
28	0x3d514f56	0.05110105
29	0x3da9ea5e	0.08296655
30	0xbe86046c	-0.2617525
31	0xbe26d9f6	-0.16294083
32	0x3e4eeb6e	0.20206997
33	0x3d171f42	0.036895044
34	0xbc51d67a	-0.012807483
35	0x3d7b1c0a	0.061306037
36	0xbe3e77db	-0.18600409
37	0x3de0800c	0.10961923
38	0x3e5e15b7	0.21687971
39	0xbe1294c6	-0.14314565
40	0x3d3a0695	0.045416433
41	0x3de6c2c2	0.11267616
42	0xbdc4f06b	-0.096161686
43	0xbc5f388b	-0.013624321
44	0x3e4d565f	0.20052479
45	0xbe82f800	-0.25579834
46	0x3dbc9af4	0.092092425
47	0x3dbeb978	0.09312719
48	0xbe600409	-0.2187654
49	0x3e3dd805	0.18539436
50	0xbd67fcd9	-0.05663762
51	0x3cc225ac	0.023699604
52	0x3d551075	0.052017648
53	0xbc0fa9d5	-0.008768518
54	0xbe204ebe	-0.15655038
55	0xbda7b307	-0.08188444
56	0xbe4e09b5	-0.2012089
57	0x3e22e4cf	0.15907596
58	0x3d9669ce	0.073443994
59	0x3d0d5d98	0.034513086
60	0xbd7d98e3	-0.061913382
61	0x3d43c5b3	0.047795963
62	0xbe6efb0e	-0.23337957
63	0x3d94f455	0.07273165
64	0xbdcefc92	-0.10106768
65	0xbca047b2	-0.019565437
66	0x3e2f3d4d	0.17113228
67	0xbe7cbe01	-0.24681856
68	0xbdbb187b	-0.09135529
69	0x3d2ea125	0.04263415
70	0xbdf3de48	-0.11907631
71	0xbe83ce5d	-0.2574338
72	0x3ce45c66	0.02787609
73	0xbd6d4fcf	-0.05793744
74	0x3dd22854	0.10261598
75	0x3e3cfbb2	0.18455389
76	0x3d87438f	0.06604683
77	0xbe590294	-0.2119239
78	0x3dddc489	0.10828502
79	0xbd84ab41	-0.064779766
80	0xbe229719	-0.15877952
81	0x3e4d7f11	0.20068003
82	0xbd064083	-0.032776367
83	0x3d9389f5	0.072040476
84	0x3e7a143d	0.24421783
85	0x3d8fb8b2	0.0701765
86	0x3e15fd9d	0.14647527
87	0x3db052de	0.08609556
88	0x3e4c2b0f	0.199383
89	0x3e2a0108	0.16601956
90	0xbdd8f90e	-0.105943784
91	0xbdf9cc7b	-0.12197205
92	0xbe0df43e	-0.13862702
93	0x3dc309b2	0.095233336
94	0xbdf72001	-0.12066651
95	0xbe477c72	-0.19481066
96	0x3d9600f1	0.07324398
97	0x3e0ff4c6	0.14058217
98	0x3e45d4a1	0.19319393
99	0xbe041e1d	-0.12902112
100	0x3c838023	0.016052311
101	0xbcd8b8e6	-0.026455354
102	0x3ca7a8f4	0.020466305
103	0xbd9c41f8	-0.0762977
104	0xbe668eb8	-0.2251538
105	0xbe23c7bd	-0.15994163
106	0x3c0fecc8	0.00878448
107	0x3e2a516b	0.16632621
108	0xbe7b3917	-0.24533497
109	0x3ae9621a	0.0017805726
110	0xbe5f77d2	-0.21823052
111	0xbe084022	-0.13305715
112	0x3c93829b	0.018006613
113	0xbe046176	-0.12927803
114	0x3e142a3d	0.14469238
115	0x3e517798	0.20455778
116	0x3e20980e	0.15683004
117	0x3d9d168d	0.07670317
118	0xbe32e7a9	-0.17471184
119	0xbd8869c2	-0.06660797
120	0xbe1fdd77	-0.15611826
121	0x3e1db650	0.15401578
122	0x3e14d3cd	0.1453392
123	0xbe7277ad	-0.23678465
124	0xbc15f2fb	-0.009152169
125	0x3e34bb52	0.17649582
126	0xbe32872c	-0.17434376
127	0x3e344780	0.176054
128	0xbe157c87	-0.14598285
129	0x3e478fe7	0.19488488
130	0x3e42f543	0.19038872
131	0xbe45cd35	-0.19316562
132	0x3d4efd05	0.050534267
133	0x3e187248	0.14887345
134	0xbc568fc9	-0.0130958045
135	0x3bea6827	0.007153529
136	0x3d942ea6	0.0723546
137	0xbd9dde05	-0.077083625
138	0x3de80e28	0.11330825
139	0xbe71601f	-0.23571824
140	0xbe766eaf	-0.2406566
141	0x3e34b657	0.17647682
142	0xbe6c34a5	-0.23066957
143	0x3e879397	0.2647979
144	0x3de25501	0.110513695
145	0x3d59ae4c	0.053144738
146	0x3e535275	0.20636924
147	0x3a91a6b7	0.0011112307
148	0xbe54a42a	-0.20765749
149	0xbe099860	-0.13437033
150	0xbe347afc	-0.1762504
151	0xbd9a54e3	-0.07535722
152	0x3e7aceed	0.24492998
153	0xbdb2c79b	-0.08729478
154	0x3e217453	0.1576703
155	0x3e130d33	0.14360504
156	0xbe5c7c67	-0.2153183
157	0xbd54b02c	-0.051925823
158	0x3e1ed223	0.15509848
159	0x3ce59579	0.028025376
160	0xbe53ffe3	-0.20703082
161	0x3d643b05	0.055720348
162	0xbd155b55	-0.036464054
163	0x3e7e419e	0.24829718
164	0x3a9e2ce6	0.0012067824
165	0x3dcf663d	0.10126922
166	0x3d550e5b	0.052015644
167	0x3e2440c3	0.1604033
168	0x3db33213	0.08749785
169	0xbd112751	-0.035437886

bias f4 [10]
0	0x3e3dad52	0.18523148
1	0xbdb000eb	-0.08593925
2	0xbcae8e27	-0.021308018
3	0xbe25bf15	-0.16186173
4	0x3e55a995	0.20865472
5	0xbc6bcbd3	-0.014391857
6	0xbe21d51f	-0.15803955
7	0xbd999782	-0.07499601
8	0xbe632934	-0.22183686
9	0xbdfd7c22	-0.12377192

weight f4 [10, 5]
0	0x3e865176	0.26234025
1	0x3d30d63d	0.043173064
2	0x3e1ee4fb	0.15517037
3	0xbe90a10d	-0.28247872
4	0xbdbbc5c7	-0.091685824
5	0x3e9bd67e	0.30437082
6	0x3e4e4c04	0.20146185
7	0xbdefa39a	-0.117011264
8	0x3d4f87a5	0.05066647
9	0x3eaef317	0.34169838
10	0xbebd3caf	-0.3696036
11	0x3ea4f6df	0.32219598
12	0xbdf370df	-0.11886763
13	0xbdcc1d11	-0.099664815
14	0x3e59b63c	0.21260923
15	0xbeb91c1e	-0.36154264
16	0xbdf4e62e	-0.11957966
17	0x3ec83434	0.39102328
18	0x3e29021a	0.16504708
19	0xbe52ee72	-0.20598772
20	0xbded4323	-0.11585071
21	0x3ec7748a	0.389561
22	0x3e3e4287	0.18580066
23	0x3e89895e	0.26862615
24	0xbe8fcf5c	-0.2808789
25	0x3de9d6bb	0.1141791
26	0x3de29af7	0.110647134
27	0x3cffb41d	0.031213814
28	0x3ee027d2	0.4378038
29	0x3e65a2f1	0.22425438
30	0x3ea51a22	0.322465
31	0x3e58d9dd	0.21176858
32	0x3e6a0fad	0.22857542
33	0xbd87b48d	-0.06626234
34	0xbec10d46	-0.3770544
35	0xbeaee12c	-0.34156168
36	0xbe9a8eed	-0.3018717
37	0xbe8aee38	-0.2713487
38	0x3e7c63cc	0.24647444
39	0x3e1431b8	0.14472091
40	0xbdea2671	-0.11433113
41	0xbeb1b8cf	-0.3471131
42	0x3ee4c08a	0.44678146
43	0x3ea3aa1b	0.31965718
44	0x3e709ff3	0.23498516
45	0x3ef80906	0.48444384
46	0xbe8edf6b	-0.2790483
47	0xbe5f20e8	-0.21789896
48	0xbe5a4738	-0.2131623
49	0xbcd06980	-0.025440931

bias f4 [10]
0	0xbecd61e2	-0.4011374
1	0x3ead3a2a	0.33833438
2	0xbb35869d	-0.0027698644
3	0x3e750a4a	0.23929706
4	0xbe809412	-0.2511297
5	0xbd250497	-0.04028758
6	0x3cfeaaed	0.031087363
7	0xbe1c85fd	-0.15285487
8	0x3ece0fa5	0.4024631
9	0xbe7b7372	-0.24555758
