model/vnnsurv-top30.pt (torch, 339293 bytes, 305 tensors)

weight f4 [10, 5]
00000000: b670 dfbe 052e b7bd 49c3 46be 19df 18be
00000010: 4c5b cfbe dc50 2d3e 936c ccbe fa0a 2dbc
00000020: 666f 0b3e 7dab 39be 4adc 843e 72cf 773d
00000030: b0cc 7a3e 7be3 8e3e 9610 50be abae 523e
00000040: e3e3 2fbe 6297 ed3d 86ae 51be 0b71 673e
00000050: 27d7 d13d 6482 1dbe d91e 7dbe bcb1 033e
00000060: 8a14 cd3e f808 4d3e b8e5 7bbd a4e0 ab3b
00000070: 4004 5d3e 3469 b0be ae73 fb3d 7dec 1ebe
00000080: 5cbf 7e3e 3b05 48be 4254 6e3c 38d6 1e3e
00000090: 5ed4 a13e 92c9 b4bd 0a08 d93e d5a0 b5be
000000a0: 7da4 eebd 754b dabe 1542 093d 99ea f23d
000000b0: 4ac2 30be 0435 363e dbcb e0bd 983a c7be
000000c0: dd23 bc3e 89cb 793e
-0.4364068 -0.089443244 -0.19410433 -0.14928855 -0.4049934 0.16925377 -0.39926586 -0.010561699
0.13616714 -0.18131824 0.25949317 0.06050057 0.24492145 0.2790793 -0.20318827 0.20574443
-0.17176776 0.116011396 -0.20476732 0.22601716 0.10246115 -0.15381771 -0.24718799 0.12860769
0.40054733 0.20022953 -0.061498374 0.005245285 0.21583652 -0.34455264 0.122779235 -0.155199
0.24877685 -0.19533245 0.014546456 0.15511405 0.31607336 -0.08827509 0.42388946 -0.35474268
-0.116524674 -0.42635694 0.033510286 0.11861152 -0.17261615 0.17793661 -0.10976382 -0.3891189
0.36746112 0.24394049

bias f4 [10]
00000000: 7386 593e e6c0 b23e eac8 2b3e 5a95 643e
00000010: ba76 bf3e c8f7 6ebd d706 a3be fbc0 60be
00000020: 0e5e 32bd 05d1 87bd
0.21242695 0.34912795 0.16775861 0.22322598 0.3739527 -0.05834177 -0.31841156 -0.21948616
-0.04354673 -0.06631664

weight f4 [10, 6]
00000000: 241c 1a3d de08 b83e a2c5 8bbe 5ff0 90be
00000010: 4dcc 26be 2546 9f3e 17d9 18be 6977 533d
00000020: 2c40 04bb 69e0 10be b42c 123c e822 99be
00000030: a7f8 54be 543c 603e 4704 a5be 07c5 a13e
00000040: 1f2d bc3e 2fb5 f73d 9da4 adbe 0e0d 1a3e
00000050: 8834 9f3d 99b7 a4be c79a 19be 867a d43e
00000060: b91f 583e 4afe 973e 981a d9bd bdd4 893d
00000070: b03b 74be cd5f 393d 8ee8 b43e 075d de3e
00000080: fdda 703e ec6b 9cbe 6d5d 9c3d 0fd2 b13d
00000090: 1895 bb3d 8d6c cdbd 67d1 d2bd ed45 9bbe
000000a0: 28fc 49bd 9bf2 98be 73eb bdbd 497b acbe
000000b0: acef 8f3e 79cc b5be fda3 2a3e ae10 d73e
000000c0: ed67 893e a3b5 e13e fff0 35be e33d b6be
000000d0: 44fb a3be 3056 23bd a670 85be bd27 3fbe
000000e0: 7c98 24be 9525 dd3e d739 d93d cfa3 893d
0.037624493 0.35944265 -0.2729922 -0.2830839 -0.16288872 0.31108204 -0.14926563 0.05162755
-0.002017985 -0.14148106 0.008921791 -0.29909444 -0.20797978 0.21898013 -0.32229826 0.31595632
0.36753175 0.12095105 -0.33914652 0.15044042 0.077736914 -0.32171324 -0.15000449 0.41499728
0.21105851 0.29686195 -0.106007755 0.0673003 -0.23850894 0.04525738 0.35333675 0.4343035
0.23521037 -0.30551088 0.07635007 0.086826436 0.09159297 -0.1003047 -0.102938466 -0.30326787
-0.04931274 -0.29872593 -0.09273424 -0.3368781 0.28112543 -0.35507563 0.16664119 0.42004913
0.26837102 0.4408389 -0.17767714 -0.3559409 -0.32027638 -0.039877117 -0.26062506 -0.18667503
-0.16073793 0.43192735 0.10606735 0.06720697

bias f4 [10]
00000000: 2d01 32be ddaf b1bd 9dd7 bd3e 62bc 2e3e
00000010: e3d7 4f3e 432c 22bd 6cc6 c5be db97 953d
00000020: 51cf 983e 0128 903e
-0.17383261 -0.086761214 0.37078562 0.1706405 0.20297198 -0.039592993 -0.38627946 0.07304355
0.2984567 0.2815552

weight f4 [10, 5]
00000000: e6f0 d339 2630 6c3e 2b4a 2f3e 5785 a5be
00000010: cdc2 1abe 0de6 cbbd b663 953e 35df 30be
00000020: e3aa 33be 7028 8abd 82ba a5bd da60 99bd
00000030: ddca e9be 076d ce3e c240 873e 2961 44be
00000040: 456d 96be 0f45 b23c 983e 8b3e 1dca acbe
00000050: 7435 49be 1aba 283e 63ef 8cbe fd92 99bc
00000060: 1c1f aebe 458f c23e c15f 8b3e 4a22 e3be
00000070: ac31 7ebe ddc9 333e 7251 23bc 6224 0f3e
00000080: 6720 bbbe 3584 80be 6634 4e3e ec72 a3be
00000090: e4f2 f1bd 7663 5e3e 8058 6b3e f693 4d3d
000000a0: f9ca 2a3e 527f 4e3e 9f6b 7ebd e2f4 0bbe
000000b0: 2692 9b3e 6151 d33e 0530 603e f65e 54be
000000c0: 88b0 c6be cb5c f0be
0.0004042454 0.23065242 0.17118137 -0.32328293 -0.15113373 -0.09955988 0.29177636 -0.17272647
-0.17545657 -0.06745994 -0.08092214 -0.07489176 -0.45662585 0.40317556 0.26416594 -0.19177689
-0.2938024 0.021761445 0.27196193 -0.3374795 -0.19649297 0.16477242 -0.27526388 -0.018746847
-0.3400811 0.3799993 0.27221492 -0.44362098 -0.24823636 0.17557473 -0.009968149 0.13978723
-0.3654816 -0.25100866 0.20137176 -0.31923616 -0.11813906 0.21717629 0.22982979 0.050189935
0.1667899 0.20165756 -0.062114354 -0.13667634 0.3038494 0.41273025 0.21893318 -0.2073935
-0.38806558 -0.46945795

bias f4 [10]
00000000: 0259 0dbb b411 4ebe a223 0ebe 0f1c 51bd
00000010: 9db1 dd3e 7004 e83e f271 2bbd ece1 0bbe
00000020: bef7 763e 56bc d7bc
-0.0021567945 -0.2012394 -0.1388078 -0.05105215 0.4329957 0.45315886 -0.041856714 -0.13660401
0.24117944 -0.026334923

weight f4 [12, 21]
00000000: 119f 273e 943a 3e3e e29b 073e bac1 463e
00000010: cb36 98bc 5147 6fbe 4adb 2abe c860 133e
00000020: 7219 45be a9ab b9bc ac76 f0bc 565c 50bc
00000030: ebcf 59be 2793 3e3e 9f3a 70bd a92b 8ebd
00000040: f80b 80bd 2650 64bd bfa4 55bd f9cc dabd
00000050: f603 1c3e d81a 4e3d 659f 8e3c ea2d 11be
00000060: 9fbb 733e 96b2 7ebd 02dd fb3d e2f0 cebd
00000070: b589 33bd 9fee 91bc 1780 64bc c6f3 24bc
00000080: 984b d2bc b491 ffbd 6e2a 59bd d4cf 3dbe
00000090: 8bbd 1f3e 8f31 95bd 50dd 8d3c 6d90 3dbe
000000a0: 444a 3abe d39a 21be 2b78 a33d 92c2 5e3e
000000b0: c509 a43a 0d66 3f3e 2d51 46be 5e9b 79be
000000c0: 302f 943d d1f8 d0bd be07 07be a5b0 5a3e
000000d0: 8f6a fb3b c00e 1a3e 54e0 a0bd f2ab 403d
000000e0: 8c1d 3b3e d0cc e73b 4efd 043e 3e0c 693e
000000f0: 2211 443e 4ef4 3c3e 65c5 bebd 43f4 8f3d
00000100: 49ad 703c 6b3f efbd 6967 d5bd 271f 7f3d
00000110: 4e53 193e 3d6c d23b 1fe6 3f3e 80e7 923d
00000120: 170c 263e 7705 c13d 86a8 1cbd d507 33bd
00000130: b878 4bbe 6125 663e 0235 e6bc 2306 d73d
00000140: d0b5 d33d 263e 23be 4827 c63d 038c b83d
00000150: 2dd3 15be 1fc7 4ebd c2dd 9f3d 305f 403e
00000160: c2e0 5b3e 7ae8 1dbd 0b75 c0bd 2944 b13d
00000170: aa65 12bd 8261 a43c b209 39be 2ef5 203d
00000180: 0510 303d 13f1 bebd 693e 4a3d 0b48 163e
00000190: 31db 5abe 71ac 443e 6b73 f6bd 7b77 55be
000001a0: 5636 733d 404a 363e c09a 31be d891 45be
000001b0: cef1 5b3e d0dd eabd f869 30be 6dd0 23be
000001c0: a8ce 84bd 4cc6 44be cb0b 2fbe 89ae ad3d
000001d0: d29a 37bd aa13 d43d ecb5 0f3e 3aa9 8d3d
000001e0: edaf 353e 0062 c1bd b614 173e cda2 f0bc
000001f0: e2da 133e a098 073e 96a2 41be b18d dcbd
00000200: 07f4 93bd e663 86bc d2b0 043e fa4f 003e
00000210: 4dcd 133e 8080 f9bb 10ae 75be 5e1c ae3d
00000220: 1af3 34be 5aa5 0ebe d974 ff3c 8fac 8cbd
00000230: f788 41be 6e9f 33be aacd db3d 47c5 96bc
00000240: f84d 313e d7b4 163e cb2c 4b3e 0ffc b13d
00000250: 38e9 3dbe 9fb8 aabd 9a57 203e 5d59 03bd
00000260: ffd9 9fbd e9f9 20bd 7895 113e 9be7 8ebd
00000270: 0b5c 05be 60d3 1ebe 4fa4 963d 370c f33c
00000280: 1bde 5abd 398b 743d 9dd2 523e 45c7 013e
00000290: 619a 433e 2535 3e3e 8180 423d 6a7a 103e
000002a0: b9ee 22be 09af 10be f723 673c 84ba d03d
000002b0: 20dc d13d df63 48be 9dfb a0bd a689 103e
000002c0: df25 d4bd 315d 5d3e e25f 69be b8e2 8c3b
000002d0: 66e1 35bd 70d2 3abd 93b7 a3bb 0954 d1bd
000002e0: e5b8 863d 4f2d 453e 19ea 24bb e941 f43d
000002f0: f6c8 6abd bbdc 0c3e 4c13 603c 9c3d da3c
00000300: e5c2 44be 95b4 3a3e 862c c0bc 59c1 44bd
00000310: 0568 bfbd 6a55 d2bc fa51 94bc 812e 453d
00000320: 9b0f 11be 5c4b 77bd 9940 003e 060d 573e
00000330: 4e0a cb3c 0978 13be 8e8a eabd ca45 cbbd
00000340: 1823 4fbe d120 e9bd 1f15 6c3e 56a4 e7bd
00000350: b27e f8bd b5cc f6bd 78b9 103e b5b0 60bb
00000360: ff94 233e 4714 003d 4249 eb3d 8eab 4f3e
00000370: 88d9 603e 9eda 4abd e510 35be b35d 593c
00000380: 1586 a3bd 1348 3dbe c123 d1bd fe74 893d
00000390: ef69 983d 279a b43d f107 5fbe caaa 11bc
000003a0: 3f6e 61be 394f a5bc 2f6d d03d 1e9f c03d
000003b0: 4bc0 9b3d a0c3 32be 8599 413d 8852 07be
000003c0: 42f6 6e3e 072b 8abd 18a9 1fbe fb06 27be
000003d0: cc13 83bd 0776 dcbd 74e7 febd 0908 0ebe
000003e0: 42c2 0dbe f19b da3d 59fb edbd 5f98 303e
0.16369273 0.18577033 0.13243058 0.19409838 -0.018580815 -0.23367049 -0.16685215 0.14392388
-0.19247988 -0.022664862 -0.029353462 -0.012717327 -0.2127072 0.18610822 -0.058649655 -0.06941921
-0.06252283 -0.055740498 -0.052159067 -0.10683627 0.15235886 0.05031857 0.01740999 -0.14177671
0.2380204 -0.06218203 0.12298013 -0.101045385 -0.0438325 -0.017813979 -0.013946555 -0.010067886
-0.025670812 -0.124789625 -0.05301898 -0.18536311 0.15599649 -0.07284843 0.017317444 -0.18512125
-0.18192393 -0.15781717 0.079819046 0.2175391 0.0012515119 0.18691273 -0.19366904 -0.24375674
0.07235563 -0.10203708 -0.13186547 0.21356447 0.007672615 0.15044689 -0.07855287 0.04703898
0.1827299 0.007073976 0.12987253 0.22758576 0.1914716 0.1845257 -0.09314994 0.07029011
0.014689752 -0.11682018 -0.104201145 0.06228557 0.14973184 0.0064215944 0.18740128 0.07173061
0.1621555 0.094248705 -0.038246654 -0.04370864 -0.1987027 0.22475196 -0.028101448 0.10499217
0.10337412 -0.15941676 0.09675461 0.0901108 -0.14631338 -0.050482865 0.07805969 0.18786311
0.21472457 -0.038551785 -0.09397324 0.08655579 -0.035741486 0.020066027 -0.18070105 0.03929632
0.042984027 -0.09323325 0.049375925 0.1467592 -0.21372677 0.19206406 -0.12033733 -0.2084636
0.05937799 0.17801762 -0.17344189 -0.19293916 0.2147896 -0.114680886 -0.17227924 -0.15997477
-0.06484729 -0.19216269 -0.17094342 0.084805556 -0.044825383 0.10355313 0.14034241 0.06917043
0.17742892 -0.0944252 0.14753994 -0.029374504 0.14438966 0.13241816 -0.18909678 -0.10769213
-0.07224279 -0.016405057 0.12958077 0.12530509 0.14433785 -0.0076141953 -0.23992181 0.08501504
-0.17670861 -0.13930264 0.031183647 -0.068688504 -0.18899904 -0.17541286 0.10732587 -0.018404616
0.17314899 0.14717422 0.19841306 0.086906545 -0.18545997 -0.08335995 0.15658417 -0.032067645
-0.07805251 -0.039300833 0.14217174 -0.06977769 -0.13023393 -0.1551032 0.07355558 0.02966891
-0.053434473 0.059703086 0.20588155 0.12673672 0.1910186 0.1857496 0.047485832 0.14109197
-0.15911378 -0.1412927 0.014107696 0.10191825 0.10247064 -0.19569348 -0.078604914 0.14115009
-0.10358786 0.21617581 -0.22790483 0.004299488 -0.04440441 -0.045610845 -0.004996249 -0.102211066
0.065782346 0.19255565 -0.0025163947 0.11926634 -0.057320558 0.13756077 0.013676476 0.026640706
-0.19214971 0.18232949 -0.02345873 -0.048035953 -0.09346012 -0.025675494 -0.018105496 0.048140053
-0.1416611 -0.060374603 0.12524642 0.21001062 0.024785187 -0.14401259 -0.114522085 -0.099254206
-0.20228231 -0.11383212 0.23054932 -0.113106415 -0.1213354 -0.120507635 0.1413325 -0.0034285013
0.15974806 0.031269338 0.11488582 0.20280287 0.21957982 -0.049524896 -0.17682226 0.013266969
-0.079845585 -0.18484525 -0.10211898 0.067117676 0.0744208 0.08818465 -0.21780373 -0.008890817
-0.22014712 -0.020179378 0.10177075 0.09405349 0.07605036 -0.17457438 0.04726555 -0.13215077
0.23336127 -0.06746488 -0.15591848 -0.16311257 -0.0640026 -0.107646994 -0.1244649 -0.13870253
-0.13843635 0.10674275 -0.116202064 0.17245625

bias f4 [12]
00000000: e671 203e 1292 d5bc e5ea 9b3d 9b4e 11be
00000010: fad0 61be da01 59be 61dc 6a3d c3a2 4e3d
00000020: 6bf9 8b3d 6dc3 f23d 19e0 0cbe 6011 563e
0.15668449 -0.026070628 0.07613162 -0.14190142 -0.22052374 -0.21192113 0.057339076 0.05044819
0.06834682 0.11853681 -0.13757361 0.20905066

weight f4 [12, 22]
00000000: bed6 593b 8f3b 2dbe 8692 25be 8c36 333e
00000010: 25d8 edbd b20c 78be 6229 6abd d8d4 b63d
00000020: cea5 eb3d f7b5 0e3d 4a14 213e c575 13be
00000030: e365 b9bd f053 0fbe 262f 143e 4738 983d
00000040: 802e 0abe c3d7 7dbc 61de 13be e87e 893d
00000050: f801 03be c28c 243d 0a58 13be f8c6 1ebd
00000060: 4530 68bd cc78 f8bd 82e6 903d 90d8 50bd
00000070: acd3 1fbd 0c36 aabd def8 a23d ff7a 09be
00000080: 5e86 f23d afd1 d8bd d237 51bd c0b4 d6bd
00000090: dff4 bd3d d539 673d f414 cebc 22ac a43d
000000a0: ba71 413e 22a1 56be 2fd6 c93d 2034 a93d
000000b0: e6d3 513d d340 4fbd 1b03 373d 3d54 36be
000000c0: 6467 f13d bb98 ccbd d6b9 203e 732e 74be
000000d0: 2a66 74bd f9d7 073e 2419 6bbd a7b2 45be
000000e0: e934 b43d 999b a73c 4a1f 9d3c dc04 15bd
000000f0: ca28 1c3e 3148 9d3d 168d 8a3d e873 81bd
00000100: 3b59 74be 8623 4f3e 79db b83d d9e0 28be
00000110: ef40 c93c 2745 0c3e 38d6 29bd eb76 3a3e
00000120: cc41 b0bd 1364 663e 772d 983d 462e d9bd
00000130: 8112 703d 9183 09bd c587 e0bd daa9 f2bc
00000140: db8d 9fbc 233f 21be cf58 bebc bf7e 1cbe
00000150: c95c 93bd 4503 5cbe 1adc f5bd 2603 21be
00000160: af87 f4bb cbe7 fdbd 180b f93d 2e89 46be
00000170: 2d44 32be 8837 d1bc 4b7f 183d dfbe b5bd
00000180: 1472 fbbd 5ea6 25be 0d7e b8bb 0718 19be
00000190: c242 44be b1ae fabd f191 e0bd 90e9 9e3d
000001a0: 5bd1 0a3e d20f bb3d 322f fa3d a219 4f3e
000001b0: 9674 a7bc c9ca 3dbd 7aa2 363d ccb5 573d
000001c0: e430 8abd 3db3 d33c 5c1a 2abe 283f bc3d
000001d0: 18a2 66be f443 753d a6dd 153c f66d e0bc
000001e0: 0cdc 9bbd f580 423e 99d1 c73d ff26 afbd
000001f0: 7450 54bc ace4 2b3c 54e7 85bd cf95 7ebd
00000200: bb19 f3bd c33f cdbc 4cea 3cbe f92d 01bd
00000210: 0a2b 5bbd 64e8 1dbe aa77 0f3d c080 4c3d
00000220: 3f5d ed3d c900 0ebe 2817 b33d 5486 433e
00000230: dc09 49be 6580 973c 1779 eb3d 8212 eb3d
00000240: 2b82 0f3e 4a37 ff3c 14b2 0abe a502 c83d
00000250: d44c 18be 2074 523c a543 acbc be25 3f3e
00000260: fbc0 80bd abf8 f6bd 20e8 6b3d 9186 f8bd
00000270: c063 993d 62fe 113e fb9b bf3c e613 cd3d
00000280: cbcf d03d 07a4 cbbb c5e7 4d3e cc7c 0cbe
00000290: ce28 033e eade 46bd 3db4 17be a3a3 00bc
000002a0: 7f16 2fbe ba8d d63d 501c 2b3d 7c03 953c
000002b0: 88fe ec3a b7bf 29be 7c71 1d3e dd42 33be
000002c0: 67f9 0ebe 3bc9 493e e5f1 8ebd 77dd 04bd
000002d0: febf 1fbe ef5e 2fbe ed9e 65bc 3e02 01be
000002e0: e7c1 3e3c e481 5b3e 5349 67bd e9bc 773d
000002f0: 63d5 c43d 6782 223e f203 31bd 413d 39be
00000300: 144c 56be 37c8 1abe a8a2 933d 2e59 f63d
00000310: 8ba5 0d3e 4420 5fbd 40ef 163c 86f2 7c3d
00000320: 6196 67bd 13b0 653d de15 8b3d 66ea 1dbe
00000330: 0b74 c13d c9ae ba3b 293b adbd 16d8 dcbd
00000340: 215b f2bd 89a9 3bbe 5b3a e53d 39c5 c3bb
00000350: a8bd 1f3e 8a1a 50be 366b eabd 2c71 853d
00000360: 196e fdbd 4b6d 313e 5390 063e 51d4 50be
00000370: 9282 1d3e 1dc7 d0bd 2da9 263e 0b00 d43c
00000380: 9d4d ec3d 9f62 e03c 31f8 133e 3afb 8f3c
00000390: 7b1a 07be 9799 5f3e c725 4a3c 12d5 61bd
000003a0: 6c43 ec3c 4884 1cbe 6e8a 2b3d db95 2e3d
000003b0: 22e0 38bd b335 383e 7a73 91bd 1e77 b3bb
000003c0: 0e96 9a3d c5ae 013e 115d ecbd 6e0c 2c3e
000003d0: 4b7a ba3c e434 38be 3b89 b63d 84b5 d5bd
000003e0: b2e9 783c 2eba d13d 16f3 bdbc 31d0 3bbc
000003f0: 6d92 c83c 78af 4a3e 0888 28be fe71 063d
0.0033239569 -0.16917251 -0.16169176 0.17501277 -0.11613492 -0.24223593 -0.057168372 0.089273155
0.11506234 0.034841504 0.15730396 -0.14400394 -0.090526365 -0.13996863 0.1447111 0.07432609
-0.13494301 -0.015493336 -0.144403 0.067136586 -0.1279372 0.0401733 -0.14389053 -0.03876397
-0.05668666 -0.12132415 0.07075216 -0.05098778 -0.039020225 -0.0831109 0.07957624 -0.13425826
0.11842035 -0.10586869 -0.051078625 -0.10483694 0.09275221 0.056451637 -0.025156476 0.08040644
0.1889104 -0.20959905 0.098553054 0.08261895 0.051227473 -0.05059893 0.044680696 -0.17805572
0.11787298 -0.099900685 0.15695891 -0.23845844 -0.059667744 0.13265981 -0.057397023 -0.19306432
0.08799154 0.020459937 0.019179959 -0.036381587 0.15249935 0.07679785 0.06765191 -0.063209355
-0.23862164 0.20228395 0.09026236 -0.16492023 0.024567096 0.13698255 -0.04146406 0.18209426
-0.086063 0.22499113 0.07430547 -0.10604529 0.058611397 -0.033572737 -0.10963396 -0.029622007
-0.019476822 -0.15746741 -0.023235707 -0.15282725 -0.07195432 -0.21485622 -0.12004872 -0.15723857
-0.007462464 -0.123977266 0.12160319 -0.19388267 -0.1740882 -0.025539175 0.03723077 -0.088742964
-0.12277618 -0.16176745 -0.005630261 -0.14950572 -0.19166091 -0.12240351 -0.10965336 0.07759392
0.13556425 0.09133877 0.12216033 0.20224622 -0.020441335 -0.04633597 0.044588543 0.05266361
-0.067476064 0.025842303 -0.16611618 0.091917336 -0.22522771 0.05987926 0.009147083 -0.027396183
-0.0761033 0.18994506 0.097567745 -0.0855236 -0.012958635 0.010491531 -0.06538263 -0.062154587
-0.11870142 -0.025054818 -0.18448752 -0.031537984 -0.053507842 -0.15420681 0.03502623 0.049927473
0.11590051 -0.13867487 0.08744651 0.19094211 -0.19632667 0.01849384 0.114977054 0.114781395
0.14014499 0.031154294 -0.13544494 0.097661294 -0.14873058 0.012845069 -0.02102835 0.18666741
-0.06286808 -0.120591484 0.05759442 -0.121350415 0.07489729 0.14257196 0.023389807 0.10013561
0.10195883 -0.006214622 0.20107944 -0.13719481 0.12808535 -0.04855243 -0.14814849 -0.007851514
-0.17098425 0.10476251 0.041775048 0.018190138 0.0018081227 -0.1657704 0.15375322 -0.17505975
-0.13962327 0.1970567 -0.069797315 -0.032437768 -0.15600583 -0.17126058 -0.014014942 -0.12598512
0.01164291 0.21436268 -0.05646641 0.060482893 0.09611013 0.15870057 -0.043216653 -0.18089773
-0.20927459 -0.15115438 0.072087586 0.120287284 0.13832681 -0.05447413 0.009212315 0.061754726
-0.056539897 0.05607612 0.0679128 -0.15421447 0.094459616 0.0056971055 -0.084585495 -0.107834026
-0.11833788 -0.18326391 0.11192771 -0.0059744385 0.15599692 -0.20322624 -0.1144623 0.065157264
-0.12374515 0.17326848 0.13140993 -0.20393492 0.1538184 -0.10194228 0.16275473 0.025878927
0.11538241 0.027390776 0.14450146 0.017575849 -0.13193695 0.21835934 0.012338108 -0.05513484
0.028840743 -0.15284836 0.041880064 0.042623382 -0.045135625 0.17989235 -0.071021035 -0.0054768464
0.07548152 0.12664326 -0.115411885 0.16801617 0.022763392 -0.17988926 0.089128934 -0.10435012
0.015192436 0.10240589 -0.023187201 -0.011463211 0.024483884 0.19793499 -0.16458142 0.032823555

bias f4 [12]
00000000: bd17 e93c a27a 33be 2190 cf3d 8f2e 3e3e
00000010: 51c1 bfbd 24eb b3bc 05ce 19bb c1b1 3abe
00000020: 1273 d4bd 2e17 26be 9fec 033e 173f 0bbe
0.028453702 -0.1752725 0.10134912 0.18572448 -0.09363044 -0.02196271 -0.0023468744 -0.1823187
-0.103735104 -0.1621978 0.12883233 -0.13598286

weight f4 [10, 6]
00000000: 3ea2 c4be 0121 c43d cc31 c03e 84c9 abbe
00000010: 2791 cebd f5f4 da3d 5b59 abbe 22c5 c8be
00000020: 20d7 913e 06a6 11be 8a4f 823e dda7 d43b
00000030: ee05 983d 3fb8 7dbe 8c6f 8cbd 812d 963e
00000040: 2a4a 3c3e b327 13be 3910 893d 9fe7 b13e
00000050: 9d4f b1be eff6 873e d629 a6bd 8cfc 96bd
00000060: 5791 683e bbfe babe 9f90 57bd e1d8 b93e
00000070: 1516 fe3d 5ece 1ebe b6c6 dabd 70ae ad3e
00000080: a2ca 163e 827f 7d3e b1c2 83be 3b55 063e
00000090: 44d6 493d 74a6 833d d758 c23e 3ee6 7f3e
000000a0: 3549 9e3e db01 133e cef2 543e 96cf 7bbd
000000b0: 6f4d c3be 2a8c abbe 5489 8dbe f243 79be
000000c0: ca88 513e 5951 223e e20d ebbd fd4e 9cbe
000000d0: 13d5 c93e 6792 a53e b2c6 593e da69 e33e
000000e0: c167 3cbe d763 5cbe ea2e 85be aa9c 6cbc
-0.3840503 0.095766075 0.37537992 -0.33552182 -0.10086279 0.10691253 -0.3346661 -0.392129
0.2848444 -0.14223489 0.25451308 0.0064897374 0.07423006 -0.24777316 -0.068572134 0.29331592
0.18387666 -0.14370613 0.06692547 0.34747025 -0.34631053 0.26555583 -0.08113448 -0.07372388
0.22711693 -0.3652247 -0.052628156 0.36298278 0.124065556 -0.1550841 -0.10682432 0.33922148
0.14725736 0.24755672 -0.25734475 0.1311845 0.049276605 0.06428233 0.37958404 0.24990174
0.30915228 0.14356177 0.20795748 -0.061477266 -0.38145015 -0.33505374 -0.27643836 -0.24342325
0.20462337 0.15851344 -0.11477257 -0.30529013 0.39420375 0.3233826 0.21267202 0.44416696
-0.18398954 -0.21522461 -0.26012355 -0.0144416485

bias f4 [10]
00000000: 67fc a6be f329 aa3e 6c93 7dbc 11b3 263e
00000010: f0ad 56be 7305 7bbc dac7 a43c aaaa 03be
00000020: c38c bc3e 134a 66be
-0.32614443 0.3323513 -0.015477043 0.16279246 -0.2096479 -0.015321123 0.020114828 -0.12858072
0.36826143 -0.22489195

weight f4 [10, 15]
00000000: 06c6 ed3d d52e cc3d 0689 fa3d 2348 28be
00000010: 2df3 743d 12e3 6a3e 83c1 863e 0d83 bbbd
00000020: 80fb 58be 7efc 29bd 7e24 febd 8941 21be
00000030: 1570 9d3d 97e5 003e 6222 3abe c10a 703e
00000040: c314 343e 6364 0cbe d48e c4bd 70cb 1ebd
00000050: f352 ccbd fb2f 693e 17f5 b93d f7e2 81be
00000060: a3f6 c0bc 428a 82bd c947 58be c414 b23c
00000070: 2cb3 f2bb b68b 223e 0970 a3bd 5e3e d0bd
00000080: 697e 073e 9ba9 f6bd eab2 d83d 378f 5dbd
00000090: 12d1 533d af2e 0abe ce98 f7bb 0f29 68be
000000a0: 6d76 ddbc 4fb7 173d eaaa 1fbe 7b48 9a3e
000000b0: f490 ebbc 3366 86be 9436 fd3d e8cc 7c3e
000000c0: 3a18 42be fb7d 2ebe 3b27 213e b6e6 86be
000000d0: bc7d bbbd deaa 15be fd3e 833d c0c2 823d
000000e0: 5a38 78bd 966a 403e 5ee2 743e 98ca 063e
000000f0: 882c 39be 3e21 623e 88ba b53c 1370 493d
00000100: 44d7 4a3e de71 74be a9b2 783e 3bb3 96ba
00000110: e21b cfbd 604a 123d 0f52 4abe 647e f0bc
00000120: cbdd 373d 8112 1abe 1ad4 4abc 3bb3 21be
00000130: 77c9 253e 484d 6a3e f3bf e73c b979 343e
00000140: f7c6 70be 0197 8e3d b131 393e 621d 82bd
00000150: 353c 793e 312b 6ebe 2401 55bd f7f6 753e
00000160: 0016 a53b a5f2 093d 9748 923d 95ce e33c
00000170: 631e 903e ba0f 2ebe c5b9 953d 88ba 373e
00000180: e74e 33be 2c55 7bbe eeac 403d b079 e13d
00000190: 81c1 f7bd 9893 4bbd 731d d0bd da8a 3c3e
000001a0: 51b1 723d e628 32be 3e21 823e 5284 693d
000001b0: 6768 71be add6 823d 30c3 0fbe e848 0abe
000001c0: 876a 45be 9c5b 5ebe 8615 233e eadf b13d
000001d0: 8ab2 303e e693 113c a2e0 f0bd 868b 36be
000001e0: 4830 81bd 3cfa 1d3d b0b8 1dbe d5f7 1d3e
000001f0: 0438 16bd 1a18 4d3e 73ec d53d 5b7d 0a3e
00000200: 281a 083e 0d7b 36be 3eed 6d3d 7d20 0dbe
00000210: 2f34 f8bd 10fe e0bd 6ef1 513c 16dd bdbd
00000220: 1ab0 18bd 3a27 f33d 4241 4b3e 9b79 cf3d
00000230: fe21 bdbd 2bc2 3fbe 3add 78bd 7183 843e
00000240: 2f27 95bc 46f9 aabd 8eeb 853e 37f2 953d
00000250: 20f9 60bd a043 e13c
0.116100356 0.0996987 0.122331664 -0.16433768 0.059802223 0.22938183 0.26319513 -0.09155855
-0.2118969 -0.04150056 -0.12409304 -0.15747656 0.076873936 0.12587582 -0.18177179 0.23441602
0.17586045 -0.1371017 -0.09597555 -0.038768232 -0.09976759 0.2277221 0.0907995 -0.25368473
-0.023555106 -0.06374027 -0.21121134 0.021738417 -0.007406613 0.15873608 -0.079803534 -0.101681456
0.13231815 -0.120440684 0.10581 -0.05409166 0.051713057 -0.13494371 -0.0075560575 -0.22671913
-0.027034009 0.03704005 -0.15592542 0.30133423 -0.028755642 -0.26249847 0.123639256 0.2468754
-0.18954554 -0.17040245 0.15737621 -0.26347893 -0.09154841 -0.14615962 0.064084984 0.06384802
-0.060600616 0.1879066 0.23914477 0.13163221 -0.18083394 0.22082993 0.022183672 0.049179148
0.1980868 -0.23871562 0.24286903 -0.0011497507 -0.1011274 0.03571546 -0.19757865 -0.029357143
0.044889253 -0.15046121 -0.0123796705 -0.15791027 0.16190134 0.22881043 0.02828977 0.17624559
-0.23513399 0.069623955 0.18085362 -0.063532606 0.24339373 -0.23258664 -0.05200304 0.24019991
0.005038023 0.03367867 0.07142752 0.027808467 0.28148183 -0.16998187 0.07310823 0.1794225
-0.17510568 -0.24544209 0.04703992 0.11009538 -0.12097455 -0.049701303 -0.10161867 0.18412343
0.059251133 -0.17398414 0.25415987 0.057010956 -0.23574983 0.063886024 -0.14039302 -0.13504374
-0.19278918 -0.21714634 0.1592618 0.08685286 0.17255607 0.008885359 -0.11761595 -0.17826661
-0.06308037 0.03856872 -0.15402484 0.15426572 -0.036674514 0.20028725 0.1044549 0.13524382
0.13291228 -0.17820378 0.05808758 -0.13781925 -0.12119328 -0.109859586 0.012813909 -0.092706844
-0.03727732 0.11872716 0.19849113 0.10130616 -0.09234999 -0.18726413 -0.060757853 0.25881532
-0.01820716 -0.083483264 0.26156276 0.073215894 -0.054925084 0.027498066

bias f4 [10]
00000000: 8e95 1f3e 436a 28be d63c f63d 6e45 763d
00000010: ab4c 47be 1f3a 35be 0948 3abe ad16 8ebd
00000020: 5aa0 18be 150b 2dbe
0.15584394 -0.16446786 0.12023322 0.060124807 -0.1946284 -0.17697953 -0.18191542 -0.06937919
-0.1490492 -0.16898759

weight f4 [10, 5]
00000000: 2238 0f3e 8dac a0be 8266 5bbd f3bc 0bbe
00000010: b256 1f3e 7da9 913e bc89 013e 6e49 1fbd
00000020: 4a85 f6bd 70c1 c13e 692f ccbd 09bd b33e
00000030: 0001 28be 87b4 c43e c9cb d73e 4b1a 9d3e
00000040: b25c 823e d941 253e 6c85 74be ff75 cc39
00000050: b6fd 043e 16cf efbd 8892 bc3d 868b 7b3e
00000060: d2b3 ddbe 70b3 cfbe 15df 96be bdb7 803d
00000070: 4837 8bbd 20c5 993d a244 0bbe 1497 91be
00000080: babb 0d3d 1ca9 a33e 8048 83be a2bd c63e
00000090: de93 e13d 14d5 dd3e db8b e1be 3fe3 d0be
000000a0: 2c77 203e 0bda c3be 75c2 bbbe 5202 843e
000000b0: bb07 5a3e 94a4 dfbe 4694 963e 17c4 a8bd
000000c0: f715 a03e 2240 7cbe
0.13986257 -0.31381646 -0.053564556 -0.13646297 0.15560415 0.28449622 0.12650198 -0.038888387
-0.120371416 0.37842894 -0.0996998 0.3510516 -0.16406631 0.3841898 0.42147663 0.30684122
0.25461346 0.161384 -0.23879021 0.00038997826 0.12987408 -0.117094204 0.09207636 0.24564943
-0.43301255 -0.40566587 -0.29467073 0.06285045 -0.067976534 0.07508302 -0.136004 -0.28435576
0.034602858 0.31964958 -0.2564125 0.38816553 0.110145316 0.43326628 -0.44052014 -0.40798375
0.1567046 -0.3825229 -0.36671796 0.2578302 0.21292011 -0.4368025 0.2941 -0.08240526
0.31266758 -0.2463384

bias f4 [10]
00000000: db7d c8be 01a5 a5be b5a2 85bd fe62 e5be
00000010: d741 94bc 3cca 70be c132 d2bd 991b 0abd
00000020: 199f 8d3c 4bc2 cdbe
-0.3915852 -0.3235245 -0.065251745 -0.44802088 -0.018097801 -0.23514646 -0.10263587 -0.033717725
0.017287778 -0.40187296

weight f4 [31, 105]
00000000: c3a4 cdbc d673 6c3d 68d4 f33b 06d2 5dbd
00000010: 4127 523d ecc3 c73d 3e1b bebd 0dc4 81bd
00000020: aa95 5e3d ddb4 c7bd 9882 9c3d 7b8f 4bbd
00000030: 1ae9 393d cb7c 933b 3bb0 11bd bd05 a4bd
00000040: bd1b 683d 671b d8bd 203f e83d d130 89bd
00000050: a0e4 743d f490 a8bd 8aa8 6b3a 22bf 293d
00000060: 78e2 be3d 8b70 84bd 142c 4fbc 5d0e 86bd
00000070: 140f 413c f734 c0bd d1c9 d7bc 8a7f 61bd
00000080: 5ba2 82bd fa66 8fbc 246e 72bd 7484 f23d
00000090: 72d1 8ebd 958d 893d 4a6b 943c c127 c9bd
000000a0: a369 473d 7fcf 933d 3f80 573d 5613 433d
000000b0: 10f6 e8bc d48c 34bd e87e 30bd 61ad 72bd
000000c0: 59d6 fbbc c666 82bc 8a65 8abb 4b76 89bc
000000d0: 94e0 d63c 227f 353d d7ea 683d 60f3 763d
000000e0: af66 92bc 32a4 d4bc 7c99 5fbd 322e 83bc
000000f0: a121 efbc 188b 9c3d 5b8e 23bd 0c74 e43c
00000100: c2b5 94bd b65e 6fbd c757 bfbd 53a9 87bd
00000110: ac31 993d e0ae 6a3d c804 ba3d edfe a3bd
00000120: 9e41 c0bd 16ec 353c 78ad bfbc 3fa0 00bd
00000130: 0bbb a23d f301 f0bc 3603 11bd 8d08 d2bd
00000140: 3137 9a3d 25f3 6abd 586c bebd d989 d0bd
00000150: 77bf 0bbd 7b78 e7bc 56ff 233d 009c b3bd
00000160: 3286 77bd e2fc 923d 1696 d0bb 7c2c 94bc
00000170: 342e f3bb beaa c4bd 203a 3c3d d871 903c
00000180: a97b a7bd 5d56 0dbb 1888 fdbd f2c8 4cbd
00000190: 389e 3cbd 7b0e 2d3d 82e2 c73c 238b 9bbc
000001a0: 5c66 643d 2276 613d 0ff0 13bd 7635 3dbc
000001b0: 62d9 c93c 8a0f 56bd 794f 3f3d e20a 033d
000001c0: 554e e63c 9975 283d 5aa6 823d f489 84bd
000001d0: 79ff 063d 0a5b 86bd e343 07bd ccbf 1d3d
000001e0: 4653 27bb 0296 8a3d 9817 72bd 3030 a63d
000001f0: df94 ba3c 5222 50bc 44b9 363d 024b b03c
00000200: 2b0e cb3c e129 843d a573 9c3d 6af2 80bd
00000210: 7d44 14bd 164b bfbd 6b7b 2c3d bfa9 48bc
00000220: f9eb ea3c a77a 863d 90bb c0bb 5d53 543d
00000230: 606b c23a 6646 b23d 716d ae3d c405 cebb
00000240: 9090 9abd 8733 f13c 7f91 943c 7e71 323d
00000250: 72a4 91bd bae6 a6bd bcfe 213d 568c 943c
00000260: 6f9e c53c 29fc 02bd ba29 103d 3c6b 903d
00000270: 704e f9bc 512e edbc ad62 b53d daf5 dd3c
00000280: 7e3d 6e3d a31d e4bc 41f2 9b3b 100a 2fbd
00000290: c911 7bbd 56b4 ccbd 0c23 303d 9f9d 5b3d
000002a0: 9d56 3c3d fe25 e63d 2676 8fbc 446d d2bb
000002b0: e0e2 d93d ad69 72bd 21ab 0e3d 2a2b c43b
000002c0: 7f6d 87bd 7927 bd3c 6799 763d 36b1 163d
000002d0: 6767 95bd 2ae2 d2bd 374d c03d 97ba 9ebc
000002e0: 7742 773b eff3 7dbd 0eea bb3c d4c3 69bd
000002f0: ae2a ce3d 90e1 8a3d 05f3 d0bd 60a0 66bd
00000300: ebe2 febc dfb9 9b3d 5014 903c d790 7abd
00000310: 9af7 ddbb a0aa 79bd f8ec a1bc 541e 253c
00000320: 148b b9bb 327c 9b3c 35a1 b23c 9280 ecbb
00000330: 14a3 89bc 6d78 bdbd a3e0 163d 984d 8c39
00000340: 1aeb 483d 0cd1 833d 72ee 5ebc c9ef 19bd
00000350: 52c6 f23c 0698 ba3d 9fcf b93c 99cf a13d
00000360: 2938 483d dbc0 30bd 461b e3bd 76d2 85bd
00000370: 77c7 163d 43c6 713d 9094 c43c 38b8 8cbd
00000380: 7c70 fc3d 68e9 b13d c69a 803b de9e 86bc
00000390: 5da2 703d cc91 c5bd f865 8e3a de77 383d
000003a0: 6d6e cf3d dc66 8a3b c6f4 1abd 31f5 19bd
000003b0: 220c 3ebd a131 c8bd edb0 3ebc fa0e e6bd
000003c0: 969d 3b3a 8bfd 143c 2c9e a43d 4fee d2bc
000003d0: 2600 efbd e64a cc3d 21a1 af3d 8389 e5bc
000003e0: 618e a33d 2955 c5bd 6f0f 8dbd ec51 3fbd
000003f0: 0862 2dbd 051b 913d 3c55 92bd c90b c8bd
-0.025102979 0.057727657 0.0074410923 -0.054155372 0.051306967 0.09754166 -0.0928254 -0.06336222
0.05434195 -0.09751294 0.07642096 -0.04969738 0.04538832 0.0045009605 -0.035568457 -0.08008907
0.05666708 -0.105521016 0.11340165 -0.06698764 0.059788346 -0.082307726 0.0008989653 0.041442044
0.09320539 -0.06466778 -0.012644786 -0.06545708 0.01178338 -0.09385102 -0.02634135 -0.05505327
-0.06378623 -0.017505158 -0.05918707 0.1184167 -0.06973542 0.06716458 0.018117566 -0.098220356
0.048684727 0.07217311 0.05261254 0.047625862 -0.028437644 -0.044079617 -0.043089777 -0.05924738
-0.030741857 -0.015918147 -0.00422353 -0.01678004 0.026230134 0.044310696 0.056864586 0.060290694
-0.017871229 -0.0259572 -0.054589733 -0.016013239 -0.02919084 0.076437175 -0.039930683 0.027887367
-0.0726123 -0.058439933 -0.09342914 -0.06624093 0.07480177 0.05729568 0.09082943 -0.080076076
-0.093875155 0.011103651 -0.023398146 -0.031402823 0.07945832 -0.029297804 -0.035403453 -0.10255537
0.07530058 -0.057360787 -0.09298009 -0.10182542 -0.034118142 -0.028255692 0.04003843 -0.08769989
-0.060430713 0.0717714 -0.006365548 -0.018087618 -0.0074212793 -0.09602879 0.04595387 0.01763241
-0.08177883 -0.002156637 -0.123794734 -0.049996324 -0.046049327 0.042250138 0.0244 -0.018987244
0.05576168 0.0550443 -0.03611761 -0.011548391 0.024639789 -0.052260913 0.04670665 0.0319928
0.028113523 0.041127775 0.06379385 -0.06471625 0.03295848 -0.06560333 -0.033023726 0.03851299
-0.0025531813 0.06766893 -0.059104532 0.0811466 0.022776065 -0.012703495 0.044610277 0.021520142
0.02478703 0.064533 0.07639245 -0.06296237 -0.036198128 -0.093404934 0.042109888 -0.012247502
0.028676974 0.06566363 -0.005881734 0.051837314 0.0014833026 0.08704834 0.08516968 -0.0062873084
-0.07547104 0.029443515 0.018135784 0.043565266 -0.071114436 -0.08149476 0.039549574 0.018133324
0.024123399 -0.03197876 0.035196044 0.07051703 -0.03043291 -0.02895275 0.088567115 0.02709477
0.058164112 -0.027846163 0.0047591035 -0.042734206 -0.061296258 -0.09995334 0.043002173 0.053617116
0.04598104 0.11237715 -0.017512392 -0.006421717 0.10638976 -0.05918281 0.03483117 0.005986591
-0.066126816 0.023090111 0.06020489 0.036790095 -0.07295113 -0.102970436 0.093897276 -0.019376082
0.0037728825 -0.06200021 0.022938754 -0.057071522 0.10066734 0.06781304 -0.10202602 -0.05630529
-0.031114062 0.076038115 0.01758781 -0.061173286 -0.006773901 -0.060953736 -0.019766316 0.010078032
-0.0056623314 0.01898012 0.021805385 -0.007217475 -0.016801395 -0.09251485 0.036835324 0.00026760693
0.049052335 0.06436357 -0.0136066545 -0.037582193 0.029635582 0.091110274 0.02268201 0.07900924
0.048881683 -0.04315267 -0.11089186 -0.06534283 0.03681132 0.059026968 0.023996621 -0.068710744
0.12326142 0.08687097 0.0039247004 -0.016433176 0.05874859 -0.09646949 0.0010864129 0.04503619
0.10128484 0.0042236876 -0.03783109 -0.03758735 -0.04639829 -0.09775091 -0.011638862 -0.11233325
0.0007156966 0.0090936525 0.080379814 -0.0257484 -0.1166995 0.09975223 0.08575655 -0.028019672
0.07986141 -0.09635384 -0.06887709 -0.046708986 -0.042329818 0.07085232 -0.071451634 -0.09767873

bias f4 [31]
00000000: d8c8 a6bd cb38 86bc c97b 523d 308f f7bc
00000010: 1b28 983d 1247 b63d 2104 b83c c2e4 253c
00000020: 4e55 663d 29ac da3d 51f4 ba3d a84f 5cbd
00000030: 0cea b0bd 3354 f5bb e271 523d 2aff 3abc
00000040: 0ba8 bdbd 8327 6f3b 3b6a 5c3d bb7b 2a3d
00000050: 6929 ffbc da18 753c 52a0 b6bb f987 ae3d
00000060: 9637 01be 2277 3dbc 9013 a53d 9c0d cdbc
00000070: 92d0 643d 72bc 2bbd 8e0a 153c
-0.08143777 -0.016384503 0.051387582 -0.030219644 0.074295245 0.08900274 0.022462906 0.010125341
0.056233697 0.10677368 0.09128631 -0.053786904 -0.08638391 -0.007486844 0.05137814 -0.011413375
-0.09260567 0.0036492057 0.053812247 0.041621905 -0.031147676 0.014959538 -0.005573311 0.085220285
-0.1261886 -0.011564048 0.08060372 -0.025030904 0.05586297 -0.041927762 0.009096755

weight f4 [10, 18]
00000000: f7a9 40be ff0c 133e a3fc 39be b956 423d
00000010: 1cb0 73bd 0e17 60ba 0cca 0a3e ddd6 04be
00000020: 4f17 733d 461c 62be 12b1 233d 00fd 4cbe
00000030: 9f0c e83d 5eac 0dbe 4670 223e 82ea 0b3e
00000040: d119 103d 33b1 48be 5f0a 3c3e 9ee7 723e
00000050: 511f e7bd a25b 1c3c c8d5 423e 7887 efbb
00000060: 9457 603d 72d9 30bd 81a2 4a3e 441d e9bc
00000070: 7ea0 a5bd a21f 7c3d bd75 7e3d bdaa 66bc
00000080: b51d c8bd f87c 39be b030 4abe beef 15be
00000090: 2549 523c 7a87 38bd af89 5abb ec60 c03d
000000a0: 2e44 85bc 5b99 073e 162f 183d 0303 523e
000000b0: a182 abbd 1a13 a53d 1bd8 55bc b3d2 3bbe
000000c0: 31d7 14be 228c 7cbe a102 323e e396 34bb
000000d0: 01d5 19be 1175 a33d 60a1 113e b235 8d3d
000000e0: f148 4dbe 9a4e d8bc 2cd7 5cbc 6dcb 14be
000000f0: 5400 173e 6d2c d2bd 5eeb 8fbd 1577 533e
00000100: db7d 903d bdc6 503b ad84 3fbe 23c2 96bd
00000110: d042 4cbe d6cd 22bd 5882 933d 4d16 c73d
00000120: f3f2 61be e582 45be bfdc 503e 9666 28be
00000130: ec80 5abe 966d 7b3e 8db5 cd3d 2232 5b3e
00000140: ed29 59bc 450f 5d3e 0228 4a3e a0c8 1fbe
00000150: e501 763d 692a cb3c d402 01be 41b0 453d
00000160: ab03 21be a2ca 2b3d dd51 eabd e367 88bd
00000170: 5144 413d 7582 9bbb 8128 233e 09cc b23c
00000180: cc70 893d 2ea5 55be 50b2 2cbd c16d 11bd
00000190: 47a8 2bbe 5c49 6cbe 1e8c 103e 84e8 70be
000001a0: c9fb 203e 0588 1fbc 1de2 093b cb24 0c3e
000001b0: 1ca4 79be 0c0c 22bd 5e66 603e b3f9 41be
000001c0: 9bbc a5bb bf72 553e 9f01 d03d 50a5 4e3e
000001d0: 9c32 633e 569f e03c 5e3f 953d 6386 14bd
000001e0: 435e 833e 1a11 eebc 8e92 b7bd 9d30 fa3d
000001f0: badb 17be b854 1cbc 64e9 3ebe 56fd 20bd
00000200: 3a0f b3bd 790f 713e 493e fa3d 790d b33d
00000210: 0020 ee3d b510 fabd c52b 68be 716d ec3d
00000220: 0e47 f23d 4a44 353e d899 a73d 780d 8cbd
00000230: 4ca3 29be 3ef8 553d b31e 073e 8d28 6c3e
00000240: 58f1 15bd 777e 4dbe 1b96 063e a2c2 61be
00000250: 4ab9 0bbe c742 ebbd 2c6f a0bc bd49 07be
00000260: d223 c43c 0aea fbbb 3bcf 09be e4d3 adbd
00000270: 8565 343d a637 32be 0c35 92bd a0c7 28be
00000280: be27 50be ae3a b9bd 25bc 143e a864 203e
00000290: 6952 49bd 2f95 33be 3acb b0bd e75c c8bb
000002a0: 1971 2b3e 1baa 203e d1c8 15be 13aa 95bd
000002b0: 6f40 1c3e 68ec 6b3e c6df 2cbe 62c4 f03d
000002c0: dbfa df3d 0c1c 1abe 2d1e 5d3d 62e7 2b3e
-0.18814836 0.14360426 -0.1816278 0.047445986 -0.059494123 -0.00085483573 0.13553637 -0.12972589
0.0593484 -0.22081098 0.03996379 -0.20018387 0.11330532 -0.13835284 0.15863141 0.13663676
0.03518087 -0.19598846 0.18363331 0.23721167 -0.1128527 0.009543331 0.19026864 -0.0073098503
0.05477102 -0.043176122 0.19788553 -0.028456338 -0.08087252 0.061553605 0.062124003 -0.014078793
-0.09771291 -0.18114078 -0.19745135 -0.14642236 0.012834822 -0.045051076 -0.0033346226 0.093934864
-0.016267862 0.13242094 0.03715428 0.20508961 -0.08374525 0.08060284 -0.013052012 -0.18342094
-0.14535214 -0.24662831 0.17383815 -0.0027555756 -0.15022661 0.07981313 0.14221716 0.06895007
-0.20047356 -0.026404668 -0.013479035 -0.14530726 0.14746219 -0.1026238 -0.070273146 0.20650895
0.07055255 0.0031856738 -0.18702956 -0.073612474 -0.19947362 -0.03974708 0.072025955 0.097210504
-0.22065334 -0.19288214 0.20396708 -0.16445383 -0.21338242 0.24553522 0.10044394 0.21405843
-0.013254625 0.21587856 0.19741824 -0.15603876 0.0600604 0.024800496 -0.12598735 0.048263792
-0.15724055 0.041941293 -0.114413954 -0.0666044 0.047184292 -0.0047457763 0.1593342 0.021825807
0.067109674 -0.20863792 -0.04216224 -0.03550506 -0.16763411 -0.2307486 0.1411595 -0.23526198
0.15721048 -0.009737019 0.0021039315 0.1368591 -0.24379009 -0.03956227 0.2191405 -0.18942909
-0.005057884 0.20844553 0.10156559 0.20180249 0.22187275 0.027419727 0.07287477 -0.036260974
0.25657853 -0.029060889 -0.089635 0.122163035 -0.14829913 -0.009541683 -0.18643719 -0.0393041
-0.087431386 0.23541059 0.12218911 0.08742804 0.11627197 -0.12210218 -0.22672947 0.11544312
0.11829959 0.17701831 0.0818364 -0.068385065 -0.16566199 0.052238695 0.13195305 0.23062344
-0.036607116 -0.20067774 0.13143198 -0.22046903 -0.13644901 -0.11487346 -0.01958426 -0.13211723
0.023942862 -0.0076878117 -0.13457958 -0.084876806 0.04404213 -0.1740404 -0.07139024 -0.16482401
-0.2032766 -0.090443954 0.14524896 0.15663397 -0.049150858 -0.17537378 -0.086325124 -0.0061145904
0.16742362 0.1568989 -0.14627387 -0.0730783 0.15258954 0.230394 -0.16882238 0.11756207
0.10936519 -0.15049762 0.053983856 0.16787484

bias f4 [10]
00000000: cf8a b83c 5738 eabd fdf6 aa3d 4245 9fbc
00000010: b8e6 6fbe bac2 493e 4f2c 37be 55dc 21bd
00000020: 674f 54be 9b7a a4bd
0.022527127 -0.11436527 0.083478905 -0.019442204 -0.23427856 0.19703189 -0.17887996 -0.039516766
-0.20733415 -0.08031198

weight f4 [21, 39]
00000000: 2552 e33d 7fba a33c 8d24 2c3d daab c13d
00000010: e415 21be ef04 243e 1118 1ebe e4a1 e4bd
00000020: c755 de3d b821 ffbd 26bd e93d 95f4 8e3d
00000030: 0201 a73d bd78 8f3d 5973 8a3d 99d8 103e
00000040: 3fc6 debd 087f d9bc 65ee 1f3d 3ddf f6bc
00000050: 626d 193e 5a01 1c3d 0633 243b 6da3 a83d
00000060: 81ae 63bd 8b7d 99bd 7695 8f3d e34c fa3d
00000070: f28c 25bd 8c87 04be 8e81 233d 17c2 50bd
00000080: 2fed 233d 8e48 d0bc 25a1 263e 9610 d3bc
00000090: ace3 51bd a496 47bd 556e 8abd f3e5 273e
000000a0: de4c ba3d 5e4e cbbd 13d3 893d 35d5 b1bd
000000b0: 969a 603c eb2a 9bbb 8f7e cf3d 65c2 19be
000000c0: 6114 513b 9d38 86bd 5ef6 d3bd b89a e93d
000000d0: 74c5 10be 601f b23d fa7c ad3d 928f 67bd
000000e0: 6540 03be 622c d1bd 312e 73bd 8e3d 39bd
000000f0: 79fa 203e 2542 013e 4777 1bbd 4af9 353d
00000100: 69ea 133e b9c7 813c b3f3 023e 461e 06be
00000110: 1416 08bd 7d92 86bb 0fc7 f93d a85c 063e
00000120: 7185 043e 12c8 123e 1c11 cf3d d62d 403d
00000130: fd63 39bd 4e70 013e 3fcb fc3d abdf 193e
00000140: fefb 953d 4f41 20bd ee82 c5bc 3c34 f7bd
00000150: 1cd0 bebc bf16 11be 06cc cdbd 824c a6bd
00000160: abc9 04be 5152 243e f601 863d 1d05 06be
00000170: 3055 973c 6569 11bd 3c43 8b3d 5eb5 003e
00000180: 37e4 113e 0e94 04be 7dd1 15be 6f79 eebd
00000190: bbd7 a3bc b702 853d bbf4 dd3d d542 bcbd
000001a0: 5fa2 7bbd fa0a 4f3d 77ee 3cbb 6102 38bd
000001b0: 8d3f ffbd 5210 b03d f6ce e03d 36a7 a33d
000001c0: 8332 cfbd d5ed f3bd 434f bf3a 94cf 86bc
000001d0: f8a9 c53d 145b ba3d 76cf 34be d8a5 883d
000001e0: 5cfa 9e3d ffc2 d2bd 16d0 bfbc 1a9e 0ebe
000001f0: 0178 ee3c 621d 28be 52b7 323d 2a96 08be
00000200: 53fc eebd d708 183e 93a1 16be ca87 d1bd
00000210: a060 f43d 8f5e 033e 6794 8dbc 5477 09be
00000220: c9fc 173e 91b1 95bd 49d8 72bc ec7b 773d
00000230: dcfe 513d 62d7 933c c0f3 473d 6d2f 29bd
00000240: 6d9f be3d 0272 f3bc e1a9 f2bd ac10 1e3b
00000250: 51da 59bc e7c0 22be 262e 01be cfff 8dbd
00000260: 6f87 483d 8df0 50bc 1a1e 203e 9b87 2e3d
00000270: 976e 0a3d 97ef 103e 0d41 acbd 7f87 c2bd
00000280: 7fb0 c2bd 062d 71bd e422 06be d29e da3d
00000290: 9d8b 093d f329 f53d 3bdd e83d 6c0d dd3c
000002a0: 84e0 0d3d 47d0 a63d 862f 223d 4426 ea3d
000002b0: 2e89 eebd 6e63 c8bd dbe0 2d3d 99cd 3b3d
000002c0: 1ebb 7abd d123 e5bd edb2 16be 5bbd 8a3c
000002d0: 5e58 3c3e 2cbd 15be 0ea5 473d 621d 773d
000002e0: 2378 b6bc d6d1 243d 3b06 cd3d 901f 2dbd
000002f0: 00b7 173e 23d9 09be 6dbe be3c d552 933d
00000300: f9cd 1fbc 45b3 1cbe 16b8 653d 7b5b ce3c
00000310: c6f3 7cbd 19e6 0f3e a7fd 0e3e ad57 513d
00000320: 9fb0 0ebd 0b8e 0abe dcf9 fcbd c144 1b3e
00000330: 259c 323e 2139 dabd 7d17 5a3d bb25 e1bd
00000340: 61c0 153d ef2d 64bd 80ad b13d 70d0 c6bd
00000350: 1bd6 c1bb 5145 cfbd bc3d 073e 72be 37bc
00000360: 0422 103e 6dbb 943c 38f2 32be 7786 423d
00000370: d1c2 063d 8999 de3d b698 1ebe 478b 223e
00000380: 30d8 d6bc 04c3 6f3d 089c 14be cf04 173c
00000390: 354a 19be 9769 aabd 4f38 40bd 9f8e 423d
000003a0: 9f84 3b3e 3d77 b5ba 7777 ea3d acda 513d
000003b0: 2c19 e93d 73da d23d 2044 363c 1a50 18bb
000003c0: 8906 0b3e c868 f53d 70cc 133e acc0 263d
000003d0: 861e 0a3c fc53 d1bc 1a26 f2bd 07e7 fe3d
000003e0: 7e83 243d 67f7 d83c 0433 2cbe f98c 443e
000003f0: 1388 b83c ccbf b23d bf0a fe3b 6cba 04be
0.11099652 0.01998639 0.042027045 0.09456606 -0.15731007 0.16017507 -0.15438868 -0.11163691
0.108562045 -0.12457603 0.1141303 0.06980244 0.08154489 0.07005451 0.06760282 0.14145125
-0.10877656 -0.026549831 0.03904571 -0.030135745 0.14983132 0.038087226 0.0025054826 0.08234296
-0.05558634 -0.074946485 0.07010929 0.12221696 -0.04041762 -0.12942332 0.039918475 -0.05096635
0.040021118 -0.025425222 0.1627241 -0.025764745 -0.051242515 -0.048727646 -0.067593254 0.16396312
0.090966925 -0.09927057 0.06729712 -0.08683244 0.013708731 -0.004735341 0.10131561 -0.15015562
0.0031903016 -0.06553767 -0.10349725 0.114064634 -0.14137822 0.086973906 0.08471103 -0.056533404
-0.12817533 -0.102135435 -0.059370223 -0.04522472 0.15720548 0.12622888 -0.03795555 0.044427194
0.14444889 0.015842305 0.12788276 -0.13097486 -0.03322418 -0.004106818 0.121961705 0.13121283
0.12941529 0.14334133 0.10110685 0.046918713 -0.045261372 0.12640497 0.123434536 0.15026729
0.07323454 -0.039124783 -0.024110284 -0.1207051 -0.023292594 -0.14168833 -0.1004868 -0.081200615
-0.12967555 0.16047026 0.06543343 -0.13087888 0.018473238 -0.035500903 0.06799933 0.12569186
0.14247213 -0.12947103 -0.14630695 -0.11644255 -0.02000033 0.064946584 0.10837694 -0.09192435
-0.061434146 0.050547577 -0.002882866 -0.044924144 -0.12463293 0.08596863 0.10976975 0.07990877
-0.10117056 -0.11910597 0.0014595765 -0.016456403 0.096515596 0.09099403 -0.17657265 0.06672257
0.07762596 -0.10291099 -0.023414653 -0.13927498 0.029109957 -0.16417459 0.04363186 -0.13338533
-0.11669221 0.14847122 -0.14710073 -0.10230978 0.11932492 0.1282904 -0.017282678 -0.13424426
0.14842524 -0.07309259 -0.014822074 0.060420915 0.051268443 0.018047038 0.048816442 -0.041304994
0.09307752 -0.02971745 -0.11848808 0.0024118824 -0.01329668 -0.15893899 -0.1261526 -0.06933557
0.048957285 -0.012752664 0.15636483 0.042609792 0.033796873 0.14153896 -0.08410845 -0.094985
-0.0950632 -0.05888083 -0.13099247 0.10674824 0.03358041 0.11970892 0.11370321 0.02698394
0.034637943 0.081451945 0.039596103 0.1143308 -0.11647259 -0.0978459 0.042450767 0.04585037
-0.061213605 -0.11188472 -0.14716692 0.016935995 0.18393084 -0.14622945 0.048741393 0.060330756
-0.022274083 0.040239178 0.10010954 -0.04226643 0.14815903 -0.13461737 0.023284161 0.07193533
-0.009753698 -0.15302761 0.05608376 0.025190106 -0.061755918 0.14052619 0.13963948 0.051109005
-0.034836408 -0.13530748 -0.123523444 0.15162946 0.17442377 -0.10655428 0.053245056 -0.10993525
0.03656042 -0.05570787 0.086756706 -0.09707725 -0.005915416 -0.10120643 0.13207144 -0.011214839
0.14075476 0.018155778 -0.17475212 0.047491517 0.032900635 0.10869128 -0.15487942 0.15873443
-0.026226133 0.05853559 -0.14512646 0.009217455 -0.14969714 -0.08320921 -0.0469287 0.047499295
0.1831231 -0.001384474 0.11448567 0.051233932 0.11381754 0.10295572 0.011124641 -0.0023241104
0.13576712 0.11982876 0.14433455 0.04071109 0.008430129 -0.025552742 -0.118236735 0.12446409
0.040164463 0.026485158 -0.16816336 0.19194402 0.022525823 0.087279886 0.007752746 -0.1296174

bias f4 [21]
00000000: 7108 573d a65b d7bd 5ab7 0fbe 6fbb 5dbd
00000010: 378b 8bbc 1817 18be b335 d5bd 28de 973d
00000020: aec5 183e 1a45 d3bd 537b 2a3d d5f3 5fbd
00000030: b5ac c9bd a83c ab3d 8f09 acbd 56f2 a5bd
00000040: 4248 86bd cb7e d33d 1ef6 34be be88 be3d
00000050: d1db b13d
0.052498285 -0.105155274 -0.14034787 -0.05413383 -0.017034156 -0.1485256 -0.10410633 0.0741542
0.14919159 -0.103159145 0.041621517 -0.054675896 -0.098473944 0.08361179 -0.08400261 -0.081028625
-0.06556751 0.10326918 -0.17672011 0.09303425 0.08684505

weight f4 [10, 18]
00000000: 5d95 8a3d 6142 24be 4788 c63d 343b 05be
00000010: 2e27 363e d819 2a3e 1561 3c3e 6bb8 42be
00000020: e27d 2c3d 4801 ecbd 8443 363e 02fc 343e
00000030: 328e 5e3e 490f b03c 2e22 94bd 03df 4a3e
00000040: 7ab7 293e 0337 623c db64 ed3d 7aa4 b3bd
00000050: 889e d53d 662e 0c3e 653f 363e 556c fdbd
00000060: f583 973d 3a2d 29bc 840f 453e 9fce 72bd
00000070: 9c74 07be 2e04 71be 7453 663e 1efa 83be
00000080: b4d9 92bd f14b 83bd 768a d2bd 8dea e8bc
00000090: f33e 03bd e901 5fbe 434a 09be 66f9 c23d
000000a0: 8c2b e93d 8da5 613e 2b29 13bd 349d 3dbe
000000b0: e7bc 0a3e b94c 9abd ea8a 8dbd 8b94 b53d
000000c0: ccee 7d3e 5c5b 433e 7d61 343d a36f 97bd
000000d0: 7775 8c3d e084 f5bc 975c 273e 254f f83c
000000e0: 8565 083e c029 ac3b 78f0 753b 6aa4 0d3e
000000f0: 56ee b6bd a831 443e 5535 11be 976e 123e
00000100: 4ba3 38be 0291 5abe 8f9a 57be 1c3f 803c
00000110: 3a4e 0a3e aaa1 5a3d 62fb 16be 97e6 84bd
00000120: 8972 3bbe 58b2 a03d 0074 873d f443 ed3d
00000130: 6fa2 623e 33bb 9fbd 8199 32be 55a6 17be
00000140: 8251 c6bd cdd9 273e db65 613e 0e5e b4bd
00000150: 8768 9dba e8c9 23be 5716 9abd e125 6dbe
00000160: 12fa a93d b059 a73d ceb5 3ebe a0d5 5cbc
00000170: c816 69bd d595 073e 4ddb 003e 530d 163c
00000180: e9f0 3ebe 05ac 5dbe 7e0b 513e db38 26bd
00000190: ad50 12bd 9a27 f1bd 32d0 33be 23a2 113e
000001a0: 4d0d bc3c cc2b 8f3d 9ea5 47be 656c 373e
000001b0: f733 413e 2d87 7c3e 53bf 493e 27ac c73d
000001c0: f54a 7f3d 064b 67be f5ef 4abe 9aad 1c3c
000001d0: 28cd 143e fd55 1a3b d643 e03d 31f0 94bc
000001e0: 7f1a a0bc bab1 9b3c 2a02 27bd e918 08be
000001f0: 81f7 e8bd c277 303e 93e9 383e 8842 b8bc
00000200: e034 45be d706 243e 45ac 1bbe ada7 c73c
00000210: d900 a53d 9e7d 20bc 5239 bebd 1942 663e
00000220: c6c4 fd3d 4ac4 5bbe eec2 0abe 7fc3 af3c
00000230: 0480 bf3d 7188 033e e74f 88bd 3b81 19be
00000240: 8736 593e 9e2c 4abe 067b 52be a543 783e
00000250: 8f3d b83d f91b 973d 0132 e8bd 4c25 0abe
00000260: 6fe6 643d 73af 88bd 2007 393e 9c83 e6bd
00000270: 45a0 573e 90bf 993d 3dab 9dbd 209f 35be
00000280: 6585 293e ccf5 b3bd e0c5 27be 2394 673c
00000290: ea98 d73d ef1c 89bd 772c 493d c75b febd
000002a0: 92f6 4c3e 5c47 6f3e 0618 0b3e a996 7cbe
000002b0: 1948 60be 6dbf cb3d 5b20 5a3e 64e5 ea3d
000002c0: 73e7 b63c 1e7b b7bd 1355 33be b8d5 e1bb
0.0676677 -0.16040947 0.096939616 -0.13010865 0.17788383 0.16611421 0.18396409 -0.19015662
0.04211224 -0.11523682 0.17799193 0.17674258 0.2173393 0.021491664 -0.07233082 0.19811635
0.16573897 0.013807061 0.11591502 -0.08771606 0.10430628 0.13689575 0.1779762 -0.12374178
0.07398216 -0.010325724 0.192442 -0.05927908 -0.13228077 -0.2353675 0.22492772 -0.25776762
-0.0717043 -0.06410969 -0.102803156 -0.028432155 -0.032042455 -0.21778072 -0.13407235 0.09520225
0.11385259 0.22035809 -0.035927933 -0.18517 0.13548623 -0.07534165 -0.069112614 0.08866223
0.24798125 0.1907782 0.044038285 -0.0739434 0.06858342 -0.029970586 0.16343914 0.030311177
0.13319977 0.0052540004 0.0037527364 0.1383225 -0.08932178 0.19159567 -0.14180501 0.14299999
-0.18031041 -0.21344379 -0.21055053 0.015655093 0.13506404 0.05337683 -0.14744332 -0.06489294
-0.1830541 0.07846516 0.06613922 0.11585227 0.22132276 -0.07799377 -0.1744137 -0.14809544
-0.09683515 0.16391678 0.22011511 -0.08807002 -0.0012009301 -0.1599499 -0.07523792 -0.23158981
0.0829965 0.081714034 -0.1862404 -0.013478667 -0.05690649 0.1324075 0.12583657 0.00915845
-0.18646587 -0.21647651 0.2041454 -0.040581565 -0.03572147 -0.117751315 -0.17559889 0.14222006
0.022955561 0.069907755 -0.19496772 0.17912443 0.1886748 0.2466094 0.1970189 0.09749632
0.062327344 -0.22587213 -0.19818099 0.009562874 0.14531386 0.0023549788 0.10950439 -0.018180938
-0.019543884 0.019005645 -0.04077355 -0.13290752 -0.113753326 0.17233184 0.18057851 -0.022492662
-0.19258451 0.16018234 -0.15202434 0.024371946 0.08056802 -0.0097955745 -0.09288277 0.22486152
0.12391047 -0.21461597 -0.13550922 0.021455524 0.09350589 0.12845017 -0.06655865 -0.14990704
0.21212207 -0.19743583 -0.20554742 0.24244554 0.08996116 0.07378382 -0.113376625 -0.1349079
0.05588382 -0.06674089 0.18069124 -0.11255571 0.21057232 0.07507241 -0.07698677 -0.17736483
0.16554792 -0.087871164 -0.16384077 0.01413444 0.10527213 -0.06694972 0.04911467 -0.12419849
0.20015934 0.23367065 0.13583383 -0.24666847 -0.21902503 0.09948621 0.21301405 0.11469534
0.02232716 -0.089590296 -0.17512922 -0.0068919323

bias f4 [10]
00000000: 2909 5d3e fd46 c6bc 37d3 56be 880c 743d
00000010: 1450 7ebe 442f 1d3e c92a 92bc d021 c63c
00000020: fe52 7d3d 31a1 77bc
0.21585526 -0.024203772 -0.2097901 0.059582263 -0.24835235 0.15350062 -0.017842667 0.024186045
0.061846726 -0.015114115
