model/vnnsurv.pt (torch, 696417 bytes, 617 tensors)

weight f4 [10, 5]
00000000: 5eee d3be dd94 c1bd c071 6abe 807f 09be
00000010: 4a44 c5be 6c6e 283e 2e99 c9be c516 86bd
00000020: 52f5 393e 4797 29be 72a3 743e 40aa 2f3d
00000030: 8b80 8f3e b9ee 873e 3671 4abe ea7d 163e
00000040: af04 3bbe 4e9c 2b3e 869e 69be 67f7 5e3e
00000050: ae7b d23d ca12 41be fce5 40be a97e bf3d
00000060: 26c7 e73e a737 403e 9ae3 83bd e702 febc
00000070: d247 883e 3128 a4be 0e56 303e 9551 2bbe
00000080: a20f 803e a348 11be 0dd6 b33b 9dc2 353e
00000090: 40c5 9c3e 05e1 ffbc 3e7f df3e 5a27 bcbe
000000a0: ca45 d4bd a29b d8be bfc5 c53c 9278 0a3e
000000b0: 089b 43be 01ab 683e 0c68 c2bd c280 d1be
000000c0: d677 9f3e 717f 913e
-0.41392797 -0.094522215 -0.22894955 -0.13427544 -0.38528663 0.16448373 -0.3937468 -0.06547312
0.18159989 -0.16561614 0.23890474 0.042886972 0.28027758 0.26549318 -0.19769749 0.1469647
-0.18263505 0.16758844 -0.22814378 0.21774064 0.10277496 -0.18854824 -0.18837732 0.093503304
0.45269126 0.1877123 -0.06439896 -0.031007243 0.26617295 -0.32061914 0.17220327 -0.1673034
0.25011927 -0.14187865 0.0054881633 0.1775002 0.3061924 -0.031235227 0.43651766 -0.36748773
-0.10364874 -0.42306238 0.024142144 0.13522556 -0.19102108 0.22721483 -0.094925016 -0.40918547
0.31146115 0.28417543

bias f4 [10]
00000000: 8f9a 4e3e ddda be3e c6d8 303e a01d 5e3e
00000010: f040 b43e 9e5a b9bd f12b c6be 81e1 83be
00000020: 4563 95bd 41d2 2ebd
0.20176147 0.37276354 0.17270193 0.21690989 0.35205793 -0.09050487 -0.387054 -0.25757983
-0.07294325 -0.042680983

weight f4 [10, 19]
00000000: ad6b 0bbe a3b9 033e 5c09 5fbe 4a77 c4bd
00000010: aaa8 02be a2c2 683d 3063 bb3c 0307 bcbd
00000020: 3eca 1e3e 9090 6f3e 7c67 043e bf93 21be
00000030: eeee 483e 9544 cd3c 7be5 853c 894a 273e
00000040: 51c3 4ebe fde1 5a3e 76c8 efbc afdf 04be
00000050: 33c1 433c 6c9a 5bbe 680b 59bd 233e 233d
00000060: baf1 1ebe f236 7bbc 2e00 f4bd d67a 163e
00000070: 13f7 6c3e e94f 1d3d c789 173e f218 5fbe
00000080: 771d 623d 4025 2c3e 4654 8abd 3165 673e
00000090: a70c 76be dac9 13bd 429a 3b3e 06c3 a6bc
000000a0: a163 1d3d 02a8 2f3d faf0 173b b61b 7c3e
000000b0: 99b7 1dbe be23 8a3d bfcd 033e eee9 20be
000000c0: 94e5 60be 1231 853d fa64 fe3d 0ad4 cebd
000000d0: 7d89 98bd a51a b9bd e500 2e3e 7ed3 073d
000000e0: 7e4e 3abe a41d 423e 1ed0 2e3d 91c0 43be
000000f0: 09c2 a03d 8e15 dfbd b8f7 edbd 632c 0fbe
00000100: f221 54be 3599 083e 8a12 873d 9981 2f3e
00000110: 187b 0bbc a67d e1bd 12ed 22be 0b44 8abc
00000120: cb54 123d 0fe9 48be d7ec 1b3e cb3d 133d
00000130: 073c 423e 886c c63d 29e4 423d c577 383e
00000140: 1342 25be de24 4f3d 1bb5 07be 695c 31be
00000150: 4ef8 cdbd 5ce8 7a3d 6afb b7bd d10e 82bc
00000160: c8f8 233e 9a3d 283e 2be1 993d f138 b6bd
00000170: 0e42 37be 397d 80bc 2214 333e 3f10 2dbc
00000180: 72f5 ecbd 4e98 473e 1b20 5e3d 4130 66bd
00000190: d6c1 28bd d9a5 533e f01d e4bd cfd5 033e
000001a0: 9d98 ed3c 82fc 03be 56d6 2fbe 12f7 3dbe
000001b0: 5eab 4bbd 6b5f ffbd 4b7d 06be e081 5fbe
000001c0: 0ab8 303e 2733 28be 1030 963d f441 e8bc
000001d0: f6ae 823b de56 de3d 205f f6bd 1f0f a13d
000001e0: 3b69 3abe cc97 593c 6b6f 3abe d19c a03d
000001f0: de29 acbd 9d97 313e 33ec ec3d ebef 9f3d
00000200: 3a2c 50be 6603 4e3e 274a 693e 762f fcbd
00000210: 400d e0bb 6113 7e3e 3a8c 0f3d 8a44 883d
00000220: 657f e037 2ec1 0c3e 2e4e 22bd 5725 a0bd
00000230: 665c 8c3d d27e d13c 65d6 44bd d06a b1bd
00000240: 4ae6 30be c9fd 4cbe 56ab 37be 2263 283c
00000250: 2e90 2ebd 6091 93bc 5f94 e93d dc81 fbba
00000260: a97a 183e 4da5 ac3d e4de 233e ad2c d0bd
00000270: 5603 433d bd41 263d c9ff 39be bdab 1cbe
00000280: 8822 60be 6dfc 213e 1498 ae3b 2c8e 0dbe
00000290: edb9 af3c d8ef 123e fe12 393d 2bd4 65be
000002a0: f853 043c 0155 61bd bd4f 2bbe dab8 173e
000002b0: c79b 10be bddc 34bd b7eb 5e3e 29ba f03d
000002c0: 8b48 17bd 4a5e febd f080 31bd a423 42be
000002d0: 7f74 43bd 0dec 103d 03dc 8b3d d01f 63be
000002e0: 5c65 3cbe 4729 4a3e 84f1 3abe 54c6 2ebe
000002f0: 0fb4 673e 35e1 143e
-0.13615294 0.12863784 -0.21780914 -0.09593065 -0.12759653 0.05682624 0.022874445 -0.09181025
0.15506837 0.2339499 0.12930101 -0.15779017 0.19622394 0.025057117 0.016344776 0.16337027
-0.20191695 0.2137527 -0.029270392 -0.12975954 0.011947918 -0.21445626 -0.052989393 0.03985418
-0.15521899 -0.015332924 -0.11914097 0.14695296 0.23141126 0.038406286 0.14798652 -0.2178686
0.05520388 0.16811085 -0.06754355 0.22597195 -0.24028264 -0.036081173 0.18320563 -0.020356666
0.03842509 0.042884834 0.0023184405 0.24619946 -0.15402068 0.067450985 0.12871455 -0.15714237
-0.21962577 0.065035 0.124216035 -0.10099037 -0.07448099 -0.09038285 0.16992529 0.03316068
-0.18194005 0.1895662 0.042678945 -0.19116427 0.07849509 -0.10892783 -0.11619514 -0.13981776
-0.20716074 0.13339694 0.06595333 0.17139281 -0.008513235 -0.11010294 -0.15910748 -0.016878149
0.035725396 -0.19620155 0.15227066 0.035947602 0.18968211 0.096886694 0.04758087 0.18014438
-0.16138487 0.05057227 -0.1325268 -0.17320408 -0.10057126 0.06125675 -0.089835 -0.015876206
0.16012871 0.16429749 0.075136505 -0.088975795 -0.17896292 -0.01568471 0.17488149 -0.010562955
-0.115702525 0.19491693 0.054229837 -0.056198362 -0.04120048 0.20668735 -0.111385226 0.1287453
0.029003436 -0.12889293 -0.17171606 -0.18551281 -0.049723975 -0.124693714 -0.13133733 -0.21826887
0.17257705 -0.16425763 0.07333386 -0.028351761 0.003988142 0.10856412 -0.120298624 0.07864212
-0.18204205 0.01328082 -0.18206565 0.0784241 -0.08406423 0.17342992 0.11568489 0.078094326
-0.20329371 0.20118484 0.22782193 -0.1231374 -0.006837517 0.2481208 0.03504584 0.06653698
2.6762204e-05 0.13745567 -0.03962534 -0.07819622 0.06853561 0.025573168 -0.048056025 -0.08662951
-0.17275348 -0.20018686 -0.17936453 0.010277541 -0.04261797 -0.018013656 0.11405253 -0.0019188481
0.14890541 0.08429966 0.16002995 -0.10164771 0.047610603 0.040590037 -0.1816398 -0.15299888
-0.21888173 0.15818949 0.0053281877 -0.13823766 0.021450961 0.14349306 0.045184128 -0.22444217
0.00807666 -0.055012707 -0.16729636 0.14816609 -0.14121924 -0.044155825 0.21769606 0.11754257
-0.036934417 -0.12420328 -0.043335855 -0.18958908 -0.04771852 0.035381366 0.06829073 -0.22180104
-0.1839804 0.19742309 -0.18256193 -0.17067844 0.2262728 0.14539035

bias f4 [10]
00000000: 016a 6c3e dd1c 58bd 9fdc 2a3e da8c 423e
00000010: f76a c0bd b8fa 993d 93a5 4f3d 13cd babd
00000020: e270 72bc 7736 3abe
0.23087312 -0.0527619 0.16685723 0.18999043 -0.09395402 0.07518524 0.050695013 -0.09121146
-0.014797421 -0.18184839

weight f4 [10, 17]
00000000: ba43 493e 2700 ee3d 46b7 703e 9793 3a3e
00000010: 6872 2cbe 0c22 a53d d2ba 1d3e 00ae 433e
00000020: 1806 bd3d d58b 67be e787 213e ce6c 573e
00000030: c0b5 0c3e ff86 dcbd 7b9a 493d 71c9 aabd
00000040: 78c0 e93d 9331 12be 3332 84bd faba ecbc
00000050: e5bc 8d3d 03c8 e73d dbdb c7bd 8b29 c03d
00000060: 31fc afbd 3dd1 82bc ace0 2bbe 6e5b bf3d
00000070: 78ba 603e 5aca 5cbe e493 ee3d 365d 623e
00000080: edbf 90bd 3429 69bb 5cc6 44bd e1d9 62be
00000090: d0f0 de3d a346 18be 5202 e33d bdee 9f3d
000000a0: 7128 573e 273d 4b3e 7ce1 23bc 466c 8bbc
000000b0: 4d09 0dbe 9dc7 9abc ccc4 703e 8f15 12bd
000000c0: 70dd 2abe 9e8e 723d 658e f93d f704 5cbe
000000d0: 87f6 003e 5973 15be 55b1 223e 46e4 223e
000000e0: c7de 0abe b7b2 4abe 461b 11bd a347 2bbe
000000f0: a698 fd3d 1ff5 e8bd 1e0f 263e 93e2 863e
00000100: 6f95 a1bb 1107 43be 01bb c03d 41dc 303e
00000110: b781 5a3e 75c4 50be c2f3 37be be2e 0ebe
00000120: 1bd6 02bd bcb0 be3d a259 8d3e 2a9d 90bc
00000130: 5db6 64be 1c7f 1ebc 30eb 81be d079 2a3e
00000140: d20b 74be d3a1 36be 43b5 40be e7fa 323e
00000150: 614f dfbd 7e40 1d3d 9bac c7bd 6a6c dabc
00000160: c48a 52bd 6507 b23c 2eb8 c23d ca95 2d3c
00000170: af00 84be 5115 6bbd 69f7 943d 3bd5 d23d
00000180: 6ef3 05be c89a 2ebe 10d3 05bd aff2 f73d
00000190: 3736 b13d 0b9b 743e d8c0 5ebd 2dc6 6ebe
000001a0: 1c9e 193e 4bd5 a33c 6734 82be c1ee 493e
000001b0: f83b d4ba 6a51 37be f649 393a 9390 95bd
000001c0: bdef 19be 6410 503e 15a0 b23d 2281 dbbd
000001d0: deb5 37be 7b2c 92bc 8302 ebbd 5f31 2ebe
000001e0: 4bac 62be ede7 87be 86ce c7bd 821a 083e
000001f0: ea3c eb3d 8b6c 9fbc ce54 07bd ac6e 663e
00000200: e560 af3c 5f4d fcbd 895a 983d 87e2 e23d
00000210: ae18 113e 4d15 923c ec77 ed3d e6d9 853d
00000220: 26fb c23d 908b cfbd 18f4 4a3e b47d 7ebc
00000230: 7dd4 303c e5f3 323e d4dc b4bd 59d6 623d
00000240: cbc3 cf3d fb4a fb3b 27f2 bf3d edf4 e4bc
00000250: c75b 003e 91c2 24be c556 5a3e 63c1 1b3e
00000260: db8b 703e b1c5 69bd 465c 8bbd 2afb a5b9
00000270: 1b69 273d d351 f93d 38e0 03be 7a4c 68bd
00000280: 33fa 633e f6bd 9bbd c1da 403e c8b1 82be
00000290: 5ebb 953d 9c75 40be 78f6 343e 7415 e43d
000002a0: 0cc9 273e a837 763c
0.19654742 0.11621123 0.23507413 0.18220364 -0.16840518 0.080631346 0.15403298 0.19109344
0.09229678 -0.22611935 0.15774499 0.210376 0.13741207 -0.10767936 0.04921959 -0.08339203
0.114136636 -0.14276724 -0.06454887 -0.028897751 0.069207944 0.11317446 -0.09758731 0.09382924
-0.085930236 -0.015968913 -0.16784924 0.09343611 0.21946132 -0.21561566 0.11649302 0.2210587
-0.07067857 -0.0035577537 -0.048040733 -0.22153427 0.10885775 -0.14870696 0.11084427 0.078092076
0.21011521 0.19847547 -0.01000249 -0.017019402 -0.13773079 -0.018894011 0.23512572 -0.03566509
-0.16686034 0.05921804 0.12185363 -0.21486269 0.12594043 -0.14594783 0.1588796 0.15907392
-0.13561545 -0.19794737 -0.0354264 -0.16726546 0.12382631 -0.11374878 0.16216704 0.26344737
-0.004931144 -0.19045664 0.09410668 0.1727152 0.21338545 -0.20387442 -0.1796408 -0.13885018
-0.031942468 0.09311053 0.27607447 -0.017653067 -0.22335191 -0.00967386 -0.25374746 0.1664803
-0.23832634 -0.17835169 -0.18819146 0.17478524 -0.10903812 0.038391583 -0.09749719 -0.026663024
-0.05140187 0.021732042 0.09507786 0.0105947945 -0.25781772 -0.057393376 0.07273752 0.10294577
-0.13081142 -0.17051232 -0.032671988 0.12106835 0.08652919 0.23887269 -0.05438313 -0.23317786
0.1500172 0.019999167 -0.25430605 0.19719984 -0.0016192188 -0.17902151 0.0007068211 -0.07302966
-0.15032859 0.20318753 0.087219395 -0.107179895 -0.1794047 -0.017843476 -0.114750884 -0.17011021
-0.22136037 -0.26544133 -0.09756188 0.13291362 0.11486228 -0.019460937 -0.03303986 0.22503155
0.021408508 -0.12319445 0.07439143 0.11078363 0.14169571 0.017832423 0.11595139 0.065357015
0.09520559 -0.10134041 0.19819677 -0.0155329 0.010792849 0.17475851 -0.08831182 0.0553802
0.101447664 0.0076688505 0.09372359 -0.027948821 0.1253501 -0.16089846 0.21322162 0.1521049
0.2349085 -0.0570733 -0.06804709 -0.00031658384 0.04087172 0.1217381 -0.12878501 -0.05671356
0.22263412 -0.076045915 0.18833448 -0.2552626 0.07311128 -0.18794864 0.17672145 0.11136904
0.16385287 0.015027918

bias f4 [10]
00000000: 03de 44be a341 163e 85a7 39bd 4e55 66bd
00000010: d50d 5e3c 8fe2 cb3d dc82 93bd c839 febd
00000020: cf0e 363c 98bc 7e3d
-0.19225316 0.14673476 -0.045325775 -0.056233697 0.0135531025 0.09955322 -0.07202694 -0.12413365
0.011111929 0.062191576

weight f4 [10, 6]
00000000: 54e4 d73c e4ce 7e3e 18f3 153e cb3e 9cbe
00000010: 3762 ecbd 1beb afbd f1d9 633e 3f0b 33be
00000020: 2123 3abe 38b9 45bd df3c b7bd 1ac1 e8bd
00000030: 5cb6 cabe 2282 c13e c1c0 433e a88e 3cbe
00000040: 1837 81be d6d2 9c3c 4467 723e eee8 93be
00000050: b383 1fbe 1cdc 303e 09b8 81be 59e8 71bd
00000060: d035 9fbe 60db bc3e 9185 653e 1b7a c7be
00000070: 80f7 61be a64e 0c3e ed3d 3a3d 139a b63d
00000080: f6f3 b1be db95 6ebe ecc8 293e 5402 a7be
00000090: f06b edbd be00 3e3e 01e1 523e 1836 ae3c
000000a0: 6380 013e 59b7 293e 4e29 93bc 6ec6 eebd
000000b0: f5b2 983e 067c d53e e499 373e ba45 43be
000000c0: d2b6 a8be 56f8 dbbe a7c9 36ba 7a8c 36be
000000d0: f51a f2bd a80d 47bd 37b7 d43e bd4c b63e
000000e0: 1cfc 57bd ee97 e4bd 638b 483e 723a 36bd
0.026353993 0.2488361 0.14643514 -0.30516657 -0.115421705 -0.08589765 0.22251107 -0.17484759
-0.18177463 -0.04827234 -0.08947157 -0.11364956 -0.39592254 0.37794596 0.19116499 -0.18413794
-0.25237346 0.019143503 0.23672205 -0.2888865 -0.15577583 0.17271465 -0.2533572 -0.059059475
-0.31095743 0.3688612 0.22414233 -0.38960347 -0.2206707 0.13701877 0.045469213 0.08916106
-0.3475644 -0.23299353 0.16580552 -0.32618964 -0.11592853 0.1855497 0.20593645 0.021266028
0.12646632 0.16573848 -0.017964032 -0.11658941 0.29824033 0.41696185 0.17929798 -0.19069567
-0.3295198 -0.42962903 -0.00069727976 -0.17827025 -0.11821548 -0.048597008 0.41546032 0.35605422
-0.052730665 -0.11161791 0.19584422 -0.04448933

bias f4 [10]
00000000: b972 d1be 5769 113e c4be b93e 741f a6be
00000010: 32a8 61bd 925a f03d ebdf a1be 1d04 b2be
00000020: 99e4 993e da7e eabd
-0.4090784 0.1420034 0.36278355 -0.32445872 -0.055092044 0.11736025 -0.31616148 -0.34768763
0.3005722 -0.11449976

weight f4 [10, 8]
00000000: 2ff7 7f3d a28c 6abe 54d0 acbc 90cb ab3d
00000010: 70c1 a1bc 0100 863e 2bba f73c 06f8 f23d
00000020: 205c a8be 2e05 b63c 235e acbd ee28 8cbe
00000030: 7635 a7be d03f 8b3e 270d 9fbe 6774 613e
00000040: 5f04 223d d706 2bbc 47ef 413e 0f07 96be
00000050: 6c7d 1cbd 8b66 903e b8e1 99be befc e8bc
00000060: 7d14 a23e e12c ca3d 91dd a53e 8ec9 aa3e
00000070: e857 e53d 0dc5 923d 2e00 6cbd 6db6 ac3e
00000080: 5535 8ebc f0ea 33be 316e 393e 06fd 31be
00000090: 9a14 803c fbc5 90be 6564 60bd 1c34 f7bd
000000a0: 6c91 963e 6767 253e 13c6 043e 6b84 4c3e
000000b0: ea86 57be 55a9 bfbe e178 4d3e e8af 323e
000000c0: 4995 5e3e 17c6 133e fd9e c6bd 20b8 80be
000000d0: b51b a63d 9c5b 153e cd4c ba3e b19d 56bd
000000e0: 74e7 76be 296e 633e 274b aabe 6911 8bbe
000000f0: bb97 f1bd 055d 59bd 827b 48be d52c 883d
00000100: 922a e8bc 86a9 2abe 66ff acbd 8456 c13d
00000110: 7e6f 6cbe 3b1c 19be 72d4 5cbe ae8c b3be
00000120: 3b5e 2fbe 1a07 5b3e 3147 653e 9c19 d2bd
00000130: bd3d 4cbe 2ed7 2bbe 55d1 e9bc bb49 833e
0.062491592 -0.2290521 -0.021095432 0.08388436 -0.019745559 0.26171878 0.030240139 0.11863713
-0.32882786 0.022219267 -0.08416393 -0.27374977 -0.32657975 0.27197123 -0.31064722 0.2201706
0.03955495 -0.010438642 0.18938933 -0.2930226 -0.03820555 0.28203234 -0.30055022 -0.02844083
0.31656256 0.09871841 0.32395604 0.333569 0.111984074 0.07166491 -0.05761736 0.3373293
-0.017359415 -0.1757009 0.18108441 -0.17381677 0.015634824 -0.28276047 -0.054783244 -0.12070486
0.29407823 0.16152726 0.12966184 0.19972388 -0.2104756 -0.37433878 0.20065643 0.17449915
0.21736635 0.14431034 -0.09698293 -0.25140476 0.081107534 0.14585727 0.3638672 -0.05239648
-0.2411173 0.22209992 -0.33260462 -0.2716172 -0.117965184 -0.053067226 -0.19578364 0.06649176
-0.028340612 -0.1666623 -0.08447151 0.0944033 -0.23089406 -0.14952175 -0.21565416 -0.35068268
-0.1712579 0.21389428 0.22390439 -0.10258791 -0.19945426 -0.16781303 -0.0285422 0.2564219

bias f4 [10]
00000000: 21a0 5c3e b815 8abe fcc2 f3bd d5d5 4d3e
00000010: 9405 b43e dec7 75be 832f e93d 95e7 e73d
00000020: e113 69be baf0 a73d
0.2154546 -0.26969695 -0.11902425 0.20101102 0.35160506 -0.24002025 0.11386015 0.11323468
-0.2276149 0.08200212

weight f4 [26, 53]
00000000: 00b2 54bd 51c3 9d3d be10 96bc 6123 e7bd
00000010: f862 2a3d a83f e3bd 855a 4b3d bef9 b33d
00000020: 5759 15bd dbef 253b 07d6 0e3d 458d f9bc
00000030: dd64 43bd df8a 253d c731 373d d8b9 c63d
00000040: d3ec 943c edd3 723d cd21 6cbb 1f71 d4bd
00000050: c753 e23d 536a b4bd 9905 d33c fbea bc3d
00000060: 5755 933d 6d9b 01bd 7164 0ebd a2f8 dbbd
00000070: 1561 e3bd 4717 883d 17eb a8bd f84c edbd
00000080: 1dd0 83bd 73e9 403d f6fd c93d 7742 0b3e
00000090: 9543 a03d 26c8 8e3d 512f 27bd 2443 ca3d
000000a0: a99e 993d cf30 98bb 00be 9d3c a2db dcbd
000000b0: 8e26 dc3d 5b48 0bbe e402 a03d 59bb e6bd
000000c0: 34bf a0bd 5b02 7f3d 6db0 f4bd 0d47 823c
000000d0: d603 febd 2206 07bd c45b b73d 2d3c 2a3d
000000e0: 4ca8 0ebd 70d2 8c3d 9b2c 11be ac85 f53d
000000f0: 9b0e cfbd 2b68 0b3e 04bf 603c a471 13bc
00000100: 9f52 063e c415 babd 43b8 2c3c 3365 47bd
00000110: 6ffa 8ebd b585 aabd 4209 153d 9ca6 823d
00000120: 1324 2d3e 21f4 de3d c2a0 da3d bb2a 913d
00000130: 5f6f debd 97fd f8bc 7ad2 e7bd 9720 f0bd
00000140: c3e7 cabd ef30 89bd 6259 38bd 2898 d03c
00000150: 1a70 9e3c a9e5 aa3c 172c a83d 7630 9fbd
00000160: 636e 69bd fd6f fbbd b46c 02be 08b4 1dbd
00000170: aacd 953d baec 2c3c afb8 243e b76d d8bd
00000180: d35a 65bd 0564 b2bd c200 04bd 55d6 9b3d
00000190: cc95 c33c 13aa 7d3d 6a75 5c3d ce81 303d
000001a0: 9bce 5d3d 23a0 d2bd 2640 9cbd 56ac f03d
000001b0: ad58 8bbd ef0b 42bd 95f7 a1bb ac1f 943c
000001c0: 342b b63d 0de1 5f3c 889e cc3d aea7 2bbd
000001d0: ed80 783d f5cf 5dbd 293e c8bd eccd cd3d
000001e0: bdf0 09be 81db 30bd e398 2bbd b4e0 003e
000001f0: ca70 e8bd 284d 06be fad2 bcbd 4ef4 043e
00000200: 93bb 293d 0bef 5bbd 2c1b b0bc e2dc 363e
00000210: 7c8c 03be e9bd ec3d 587b bdbc 27e3 b7bd
00000220: 1003 b9bd 5480 ac3d c440 333d 0ceb 82bc
00000230: 722f 583d 6ece 4b3d 51c0 04bd 578e c0bd
00000240: 7930 8d3c 81d0 c63d 741e 193c bc44 16bd
00000250: 0f24 8f3d 1027 93bc 4714 993d 680c 1abd
00000260: d50f 18be 858b 053e 7f93 9bbd 622a 7d3c
00000270: 05a0 4bbd 29da a0bb b900 09bc f96a 903d
00000280: e6f7 d73d 427d 913c 0da9 f23d b658 4d3d
00000290: 4ab7 c63d 0991 45bd 88c4 fbbd f55f 82bd
000002a0: 4ef4 41bc 1cf0 6abd 0927 a43b 3cde 90bd
000002b0: edfb e23d d786 153e 4ef2 8d3c 5355 123e
000002c0: 59ea ba3d 2acb a73c f95c 0f3e 5862 013d
000002d0: 5e44 8f3d 66ac 013e 79b2 bc3c 44d1 b63d
000002e0: ff51 aa3d 4ae4 74bc 3a8b ffbc 304d 933d
000002f0: 3105 203e c0b8 e33b 5d74 253d b9a7 ad3d
00000300: 470e b2bd df72 91bd b040 8c3d 4920 0b3e
00000310: 2104 28bd ac57 4abd 2a6d d43d 3750 a7bd
00000320: 22c5 9c3d 7725 e63b 2b74 2b3d 4f39 9bbd
00000330: 81b8 e8bd 5e82 aab9 d8ed 633d 78b7 acbc
00000340: 7689 b3bc 3153 003e 87e3 f23d 123e 62bd
00000350: 30b8 d4bd 85b9 573d 9e97 83bd 6c29 ef3b
00000360: f167 fabd 7e13 1c3d 9afc a03d 57ac 86bd
00000370: 64c5 acbd efb4 f8bd cb1b d2bd 02b0 b0bd
00000380: eab7 8abd e0bc fc39 d27c debb b8c5 20bd
00000390: 9e9e 4e3d 6a59 00be 9a8f 2a3d 2318 533c
000003a0: 2bf9 b13d 01bb 813d 9a5d fdbc 1f5d 63bb
000003b0: 18b3 a0bd 4abb 6ebd 00ea 28bd 7d8e f6bd
000003c0: f968 053c ab1f 17be 478a 163e cfed acbd
000003d0: a60f d4bd 286a f43d 5448 8abc 5b4d a03d
000003e0: 3c14 24be dad0 2cbd 3b20 e83d 3137 7bbb
000003f0: b607 f53d 2626 9b3a 21bf 073e bbf7 993d
-0.051927567 0.07703269 -0.01831853 -0.11286045 0.04159829 -0.11096126 0.049646873 0.08787869
-0.036462154 0.0025319967 0.03487208 -0.03046287 -0.047703613 0.04041564 0.044725206 0.09703416
0.018179333 0.05928414 -0.003603089 -0.10373139 0.110511355 -0.08809342 0.025759505 0.092245065
0.07194012 -0.031642366 -0.034763757 -0.10740782 -0.11102501 0.06645065 -0.08247965 -0.11586946
-0.06436179 0.047097635 0.09862892 0.13599573 0.0782539 0.06971769 -0.04081661 0.09876087
0.07500965 -0.0046444903 0.019255638 -0.10784079 0.10749541 -0.1360182 0.07813051 -0.112662025
-0.07848969 0.062258106 -0.11947713 0.01590302 -0.124030754 -0.032964833 0.0895305 0.041561294
-0.03482847 0.06876075 -0.14177172 0.119883865 -0.10110208 0.13613956 0.013717417 -0.008999262
0.13117455 -0.09086183 0.010541978 -0.048680495 -0.0698136 -0.08326284 0.036385782 0.063794345
0.16908292 0.10886408 0.10675193 0.07088228 -0.10861086 -0.030394359 -0.11319442 -0.11724966
-0.09907486 -0.066987865 -0.045007117 0.025463179 0.019340564 0.020861464 0.082115345 -0.07772915
-0.05699004 -0.122772194 -0.1273678 -0.03850177 0.07314618 0.010554487 0.16086076 -0.105678014
-0.05599482 -0.087104835 -0.032227285 0.0760924 0.02387514 0.061929774 0.053822912 0.04309254
0.054152112 -0.1028445 -0.07629423 0.117516205 -0.06804023 -0.047374662 -0.004942844 0.018081509
0.08894959 0.013664496 0.09991175 -0.04190796 0.06066983 -0.0541534 -0.09777481 0.10049042
-0.1347074 -0.043178085 -0.04189385 0.12585717 -0.11349638 -0.1311537 -0.09219928 0.1298382
0.04143865 -0.053694766 -0.021497332 0.17857698 -0.1284656 0.1155966 -0.023130104 -0.08978873
-0.09033787 0.08422914 0.043762937 -0.01598122 0.052779622 0.049757414 -0.03240997 -0.09402149
0.017235028 0.09707738 0.0093456395 -0.036686644 0.069892995 -0.017962962 0.07474571 -0.037609488
-0.1484979 0.13041504 -0.07596492 0.015451999 -0.049713153 -0.004908819 -0.008361989 0.070516534
0.1054533 0.017759923 0.1184865 0.05013343 0.09702928 -0.04823402 -0.12293345 -0.063659586
-0.011838032 -0.057357892 0.005009536 -0.07073638 0.11083207 0.14602219 0.017327454 0.14290361
0.091267295 0.020482618 0.1400031 0.03158793 0.06995462 0.12663421 0.023034321 0.08926633
0.08316421 -0.0149470065 -0.031194318 0.07192457 0.1562698 0.006949514 0.040394176 0.08479256
-0.086941294 -0.07101988 0.06848276 0.13586535 -0.041019563 -0.049400017 0.10372384 -0.08169597
0.076547876 0.007023509 0.041858833 -0.0757929 -0.11363316 -0.00032522058 0.055646747 -0.021083578
-0.021916132 0.12531735 0.11859804 -0.055234976 -0.103866935 0.05266716 -0.06425403 0.007298639
-0.122268565 0.038104527 0.0786068 -0.0657584 -0.08436087 -0.12143885 -0.10259207 -0.08627321
-0.0677336 0.00048205908 -0.006789782 -0.03925106 0.050444238 -0.12534109 0.041640855 0.012884173
0.08690103 0.06334496 -0.030928422 -0.0034692956 -0.078466594 -0.05828408 -0.041238785 -0.12038896
0.008142703 -0.14758174 0.14701186 -0.08443796 -0.10354547 0.1193431 -0.016880192 0.078272544
-0.16023344 -0.042191364 0.113342725 -0.0038332457 0.11964361 0.0011836931 0.13256504 0.07517954

bias f4 [26]
00000000: d0c8 10be e6e8 a4bd c69b 8f3d 7ad5 f3bd
00000010: 7579 ca3d 75ec 283d 6236 bc3d 9925 163d
00000020: 036a 6f3d bc9e fd3d 34d2 a4bd 4a25 5f3b
00000030: 600e 3b3d bf69 b5bc f034 bc3d f2e3 813b
00000040: dfe7 58bd bc88 8f3d 138d 2dbd bade 9ebd
00000050: 0342 063d e244 ce3d 89fc 88bc 70a5 edbd
00000060: 3c72 253d f3cb 68bd
-0.14139104 -0.08052234 0.07012133 -0.11905952 0.09886447 0.041241128 0.0919006 0.03665695
0.05845071 0.12383792 -0.080479056 0.0034049326 0.045668006 -0.02214515 0.091897845 0.003963941
-0.052955505 0.07008502 -0.042370867 -0.077573255 0.032777797 0.10071732 -0.01672198 -0.1160382
0.040392146 -0.056835126

weight f4 [29, 57]
00000000: 06be bcbd 9ec2 efbc 393e e13d 5dfc 8cbd
00000010: 3d84 b63d ea71 ce3d 2036 163d 655a 633d
00000020: d745 d4bd fbc2 5c3d e364 03be 5ce9 ab3d
00000030: 21cc 0f3b 1c17 5a3d f9f9 1c3d e4e0 fabd
00000040: a51c bdbd 2129 9f3d 0e32 f2bd 7b74 8d3d
00000050: 0f73 b43d ebbb 033d 43a5 babd dacc afbd
00000060: e29a 9d3d f4d5 233d fabf a5bd a05e c6bd
00000070: 2779 f43b 4a2d c13d 3d82 b33d 2259 d0bc
00000080: 7082 e9bd 1cad 35bd 40b3 f9bd 1db0 d8ba
00000090: 9114 e63c 72f1 8e3c d90a ad3c 136e 863d
000000a0: a9d9 bbbd 4405 203d bb4d 79bd c49d b9bd
000000b0: 256e aabd 1dbb b5bd 7ce4 f83c 6853 7b3d
000000c0: ae69 acbd 3e15 b73c 7cf8 c2bc 6c82 94bd
000000d0: 4a14 903c 030d a63c e74e 1cbe 03a5 00bd
000000e0: 02ec 6ebd 5258 343d d99e 99bd db28 053d
000000f0: 4ac8 7f3d 602b babd c58b 01be 34d0 d7bd
00000100: 73a3 98bc b10d 323c f9b0 63bd 1b4d 64bd
00000110: e346 00bd bdc8 0bbd 2455 d4bd cbc5 dfbd
00000120: e586 8e3d d5b3 6e3d e932 afbd 7b84 f4bc
00000130: 2dcc b13d 2096 fd3d 5e12 a53d 383c 02be
00000140: 2bf0 bcbc b30e 9d3c 7047 2f3d 8e01 d63d
00000150: eebd a73c 01fb 0c3e a21d 9b3d 668a f1bd
00000160: 8fd4 e8bd 0f90 873d 9e54 573d 022d 98bd
00000170: 11ea 87bd 27bd 9fbd 8f8b c13d 437a 14be
00000180: 475f 05be 7459 2ebd e3e3 eabd 4cb4 d13d
00000190: 954f a9bd 1831 ad3d 180c 8b3d ffa5 26be
000001a0: df35 b7bc 744b ab3d 377e b2bc 92c3 a83d
000001b0: 2044 10be 8bc8 c1bd d69f 323d 0417 aabd
000001c0: 1da1 153e 159b c93d 61f0 2f3d e607 493c
000001d0: a99b 89bd 83f6 67bd f652 4dbd 9555 8ebd
000001e0: 6a38 733d a6b8 e43d f3c4 87bd c855 ec3d
000001f0: ee0d d33d a9f4 c4bd 8c03 bd3d 4fda 883d
00000200: 55c3 1dbe 823e 993c 39f0 9d3c 5973 85bd
00000210: 0fcb a4bd c561 ce3c c0ca 9abd a776 a5bd
00000220: c583 f53d 0770 e73c e350 e7bd c13e e83d
00000230: 09b4 e0bb edca 64bc c65c cebd a2b0 0a3d
00000240: fbc6 923d efb1 e93c 0728 48bd 0469 b63d
00000250: 6323 1f3c f962 8a3d ba19 00bd 4c89 31bd
00000260: e3a3 17be b3e6 e73d 0496 3ebc ca43 213d
00000270: e745 81bd 2192 a4bd ea55 c43d 9d1a 8ebb
00000280: e4e9 d8bd 1c5c 0a3c c845 b9bd 8471 e5bd
00000290: 5498 083e be25 9f3d 76ba 133d 501e 173e
000002a0: 8609 133d f0a2 d2bd e6df 5fbd a326 183e
000002b0: 9e1b f4bd d506 06bd 1727 a53d 714a 70bd
000002c0: 31da 603d 5273 cabd 95ae 14be c60f d8bd
000002d0: 86c2 aabd bb5b 013e 3c02 813d e698 603b
000002e0: 2ade 59bb 29b3 b9bd 2ec5 72bd bd1e cebd
000002f0: 3bee 273c 3952 5bbb d9ae ce3d 1e81 a5bc
00000300: 5136 763d f89c fabd f58c bb3d a06f efbc
00000310: ffa2 2b3e 8bfb 483d a6b3 fdbd 5b44 1a3e
00000320: c1e4 6bbd c6f1 9b3d a7ae d73d b27b 4a3d
00000330: d963 b13d 64b1 c03c 1c50 1bbc 33cf 20bc
00000340: c163 183d 02b1 73bd e54f 1fbe 17db b1bc
00000350: 3e74 1b3e 445f f7bc 8930 dc3b 6821 6a3d
00000360: 4a9b cc3d d8ba a23d 2790 61bd 0514 f73d
00000370: b36a f53c 7f02 b6bc a724 f0bd 9b18 503b
00000380: 0e85 943d ba72 e33c 29fa e8bc 6cac 88bd
00000390: f7ab a8bd 80f4 50bd 9dec 1cbd 1b04 64bc
000003a0: d1aa 8dbd 12b3 fdbd ae30 a03d 2c0b 073e
000003b0: bd83 43bd 6c8d 353d 2c4c 55bd 5282 163d
000003c0: 9218 b7bd 743a 59bd a791 d23c 7d5a 95bd
000003d0: f76e 3f3d 705b b9bd 43b0 9c3c 1220 0b3e
000003e0: cf1d cebd 98ff 563d ee8b 163d 306e e1bd
000003f0: 8dc7 d53d a69b edbd d2ed bebc c9a8 303d
-0.092159316 -0.029267605 0.10998196 -0.06884072 0.08911941 0.10080321 0.03667271 0.05550613
-0.103648834 0.053896885 -0.12831454 0.08394119 0.0021941739 0.053244695 0.03832433 -0.12249926
-0.09233979 0.077715166 -0.118259534 0.069069825 0.08811008 0.032161634 -0.091135524 -0.08583994
0.07695557 0.039998963 -0.08093257 -0.09686017 0.0074607315 0.09432466 0.08765075 -0.025433127
-0.11401832 -0.044354543 -0.12192392 -0.0016531978 0.028085979 0.017449114 0.021123337 0.06563964
-0.09172375 0.03906752 -0.060865145 -0.090632945 -0.0832179 -0.0887358 0.030382387 0.06135884
-0.08418594 0.022348996 -0.023800127 -0.072514385 0.0175878 0.020269876 -0.15264474 -0.031407367
-0.058330543 0.04402954 -0.07501001 0.032509666 0.06244687 -0.090903044 -0.12650974 -0.105377585
-0.018632626 0.010867522 -0.055588696 -0.055737596 -0.031317603 -0.034126986 -0.10367802 -0.10926398
0.06959323 0.05827697 -0.08554632 -0.029848328 0.086815216 0.1238215 0.08060144 -0.12718284
-0.02306374 0.019172048 0.042792737 0.10449515 0.020476308 0.13767625 0.075740114 -0.117939755
-0.11368667 0.06619274 0.05257093 -0.074304596 -0.066364415 -0.0779975 0.09450447 -0.14499764
-0.13024627 -0.042565778 -0.11469247 0.10239467 -0.08267132 0.084566295 0.06789416 -0.1627426
-0.022364555 0.08364001 -0.0217887 0.08240427 -0.14088488 -0.09462079 0.043609463 -0.08305171
0.14612241 0.09844033 0.042953853 0.01226995 -0.06719143 -0.056631576 -0.050127946 -0.06949917
0.059379973 0.111680314 -0.06629362 0.11539799 0.10305391 -0.09616978 0.09229192 0.06682264
-0.15406545 0.018706564 0.019279586 -0.065161414 -0.08046543 0.025193105 -0.07558203 -0.08079272
0.11988024 0.028251661 -0.11294725 0.11340094 -0.0068573994 -0.013964397 -0.10076289 0.033859856
0.07166859 0.028527228 -0.048866298 0.08906749 0.009713027 0.06757159 -0.031274535 -0.043343827
-0.14808612 0.11323299 -0.011632446 0.03937129 -0.06312161 -0.080356844 0.09586699 -0.0043366686
-0.10591486 0.008444812 -0.09046513 -0.11203292 0.13339359 0.077708706 0.036066495 0.14757657
0.035897754 -0.10284984 -0.054656886 0.14858489 -0.1191933 -0.03272136 0.080640964 -0.058664743
0.054895584 -0.09885277 -0.14519723 -0.105498835 -0.08337884 0.12632649 0.06299254 0.0034270822
-0.0033243992 -0.09067375 -0.059270076 -0.100644566 0.01024967 -0.0033465757 0.10091943 -0.02020317
0.060110394 -0.12236971 0.09157745 -0.029228032 0.16761397 0.049068015 -0.12387781 0.15065138
-0.057591204 0.07614474 0.10531359 0.04943437 0.086616226 0.023522086 -0.009479549 -0.009815025
0.037204508 -0.05949498 -0.15557821 -0.021710915 0.15181062 -0.030196793 0.006719653 0.057160765
0.099905565 0.07945794 -0.055069115 0.12064365 0.029958105 -0.022217987 -0.11725741 0.0031752947
0.07251941 0.027764667 -0.028439598 -0.06673512 -0.08235925 -0.051014423 -0.03831159 -0.013916994
-0.06917346 -0.123876706 0.07821785 0.13187855 -0.047733057 0.044324324 -0.052074596 0.036745377
-0.08940233 -0.05303426 0.025704218 -0.0729265 0.046736684 -0.090506434 0.019127017 0.13586453
-0.10064279 0.052489847 0.03675454 -0.11007345 0.10438452 -0.11601953 -0.023306761 0.043129716

bias f4 [29]
00000000: 597d b9bd 2868 cd3d 7317 dcbd 45a4 1dbd
00000010: 8e41 a3bc 0037 c8bd 89e3 abbd 42f9 0dbd
00000020: 5d42 a23d 4445 7fbd e8ee 2d3d e23b 3f3d
00000030: 42c1 82bd c439 6fbc c713 abbb 57cc a73d
00000040: ef98 e33d a1ec 693d 2c79 933d 9ab1 8bbd
00000050: 5d25 a53a 410e 7dbd 5bdf febb cdd4 d93d
00000060: 9fab 053d e3f9 273d e435 02bd f864 a53d
00000070: 7734 ec3d
-0.09057111 0.10029632 -0.1074666 -0.038486738 -0.01992872 -0.097761154 -0.08393008 -0.03466154
0.07922814 -0.062321916 0.042464167 0.046687968 -0.06384517 -0.014601175 -0.0052208635 0.081932716
0.11113154 0.057110433 0.07200846 -0.06820984 0.0012599636 -0.06178117 -0.007778091 0.10636292
0.032634374 0.041009795 -0.031789675 0.08075899 0.115334444

weight f4 [25, 58]
00000000: e2f2 cebd ea8d ffbd 34e1 8c3d ff33 d83b
00000010: 7a0b 91bc 7d5f 083e fd27 923d 8224 033c
00000020: 8278 14bd b650 e3bd ea75 3dbd b101 e0bd
00000030: d94c 4c3d 9860 c13d 0a3e 2cbb 06cf 16be
00000040: 70e6 1a3c 3fa6 c83d 5200 973d 47ab e3bd
00000050: 072c 3cbc f50c a63c 0d41 173d 2393 1dbe
00000060: 9ad2 c4bd adda 8e3d fe9d 083d 0fb6 c0bd
00000070: 1704 783d d564 a13c 97d6 b0bd a48d 13bd
00000080: bed6 133d bdf9 b4bd dbdf 373c cea2 a8bb
00000090: dce0 6fbd b001 e3bd 7878 b13d 7665 94bc
000000a0: dccc 7dbd 79b0 9b3d bbdb ddbd 8bf4 693d
000000b0: 7196 593d 5cdc a1bc 6b7d dbbd e210 a33d
000000c0: 9b9d 0e3d 0719 453b f3b8 d3bd 49d9 973b
000000d0: ec7b 9e3c 2c1e bebd 98fb cebd 51d0 0d3e
000000e0: 0671 01bd b29c 0e3d d531 24bd eb27 3a3d
000000f0: 6990 cc3c d47d d63d 51e9 bc3b 7587 debd
00000100: 913f 113e 2b66 23bb 342d 59bd 018f 9a3d
00000110: 632e 0f3e f44b eebd 351d f73d 3bce 113d
00000120: b3bc 9d3d a98f 0bbe 94cf 62bd 2532 243d
00000130: d068 df3d 10da 823d 9392 f7bd 3c8f 41bd
00000140: ad1c 893d b8b6 29bc 69a8 df3d 83c1 73bd
00000150: 9760 b93c ea17 af3d 7132 d53d 2ec4 c03c
00000160: ee66 b1bd 303d e13d d894 933d a80c c2bd
00000170: 10d3 873d 13c8 a43c 4384 0f3e 509a e53c
00000180: 72e9 8b3d 730d 3fbc 6cae d23d 05bc cf3d
00000190: 5f0b f13d cbb5 0c3e 99c1 61bd ec04 673d
000001a0: 2295 37bd 8295 88bd ca01 bbbd de20 3ebd
000001b0: 24d1 7a3d 7339 633c f6f1 d1bd b175 ddbd
000001c0: db9b ea3d 6148 74bd 7da5 d8bd 29b6 d93c
000001d0: e924 003e 9822 bf3c 4049 a1bb 3f02 833d
000001e0: da02 083d bc42 fd3d 52a0 913c d816 013c
000001f0: fe96 cd3d f595 b5bd f7fd f2bd 14b1 90bc
00000200: 7da5 04be 8f75 cf3d 5898 63bd 3971 6fbd
00000210: c09f 94bd 63c8 ca3d 1edb f4bd cf5b 243d
00000220: 957d 05bd 3545 74bd b6bb c2bd 1701 b73d
00000230: 6687 92bd 2447 b8bc 914b 0a3d 4553 d73c
00000240: 4e18 a13c a43a 723d b1fc 8cbd 5d62 ac3a
00000250: bae2 23bd 01ac 923d f677 febd 41ec d1bd
00000260: fbe8 0d3e 7d33 00be 0c95 63bd 7798 393d
00000270: 8830 b63d 8653 4c3d 9b44 b0bd b46a d3bd
00000280: 0685 6f3b 584d f8bd 53b6 6c3c 0c6c 4abd
00000290: a460 7abc 01af 9ebd 24d3 8f3d 1954 dd3d
000002a0: 1865 2b3d c4bd 7ebc b250 dbbd 9f6d 153c
000002b0: 9785 d6bd 3314 d83d 661d 07be f8db d03d
000002c0: 166a f33d a056 12be e68c 4bbc 57f3 3a3d
000002d0: 49e0 c3bd 6fd0 2cbd ea95 1b3e 6dd7 803d
000002e0: 0b7e ccbd 8750 133d 1223 bbbb 9d4e 9abd
000002f0: ed18 863d a2f7 b53d 3238 babc f7ca 903d
00000300: 4d82 b1bd d6b3 bc3d 33c3 223c 094b dd3d
00000310: 25f2 5c3d 3ffa e7bd cf0c aebd 73a4 c1bc
00000320: 436d 05be d0fc c9bc 35c6 e63c 44e7 e1bd
00000330: deca 15be 34a9 333d c1ce 2b3d c220 ac3d
00000340: 2f30 51bb d5fc 19bc 88fe 86bd bdf4 b5bd
00000350: 95cd 0cbe 20b9 abbd d1c2 22bd 70f9 47bd
00000360: 0db8 063e 952e e43d 3460 f83d ea77 b9bd
00000370: bc35 c03c b152 cabc de61 82bb cab4 1cbe
00000380: fcd6 883c fcf5 d73d b497 c8bd 846f 18bd
00000390: 4211 253d 1af2 fe3c 3073 bb3b 4457 063d
000003a0: 7e8f 08be c1e6 0fbd 5cd2 b63b de14 24bd
000003b0: bd06 ef3c 598d 513c 4f82 bd3c 8e48 c33d
000003c0: 3e02 debd 4954 00bb 0587 0c3c 98f2 b13d
000003d0: 0cb1 94bd 2687 e7bd 799f aebd 9cb1 92bb
000003e0: c01a 913d 14f5 4fbc 96f0 833d be8c 31bc
000003f0: 075b d0bd 2ef0 bc3d 37d2 aa3d 7d34 79bd
-0.1010492 -0.1247824 0.068788916 0.0065979953 -0.017705668 0.13317676 0.071365334 0.00800431
-0.036247738 -0.11099379 -0.04625503 -0.109378226 0.049877975 0.09442252 -0.0026282095 -0.1472741
0.009454355 0.09797334 0.07373108 -0.11116653 -0.011485106 0.02026985 0.03692727 -0.1538816
-0.096104816 0.06975303 0.033353798 -0.09409725 0.060550775 0.0197014 -0.0863468 -0.03602375
0.036093466 -0.08836696 0.011222805 -0.005146361 -0.058564052 -0.11084306 0.08665556 -0.018114787
-0.061962947 0.07602019 -0.10832926 0.05711798 0.053121988 -0.019758396 -0.10717281 0.079622045
0.034818273 0.0030074732 -0.10338011 0.0046340567 0.0193462 -0.092830986 -0.101065814 0.13848998
-0.03160193 0.034817405 -0.040086586 0.045448225 0.024971204 0.104732186 0.005765118 -0.1086568
0.14184405 -0.0024932723 -0.053021625 0.07546807 0.13982539 -0.11635581 0.12066118 0.035597067
0.07702007 -0.13629021 -0.055373743 0.040086884 0.10908663 0.06389248 -0.12088504 -0.04725574
0.066949226 -0.010358505 0.109207936 -0.05951072 0.022629065 0.08549483 0.104100116 0.023531046
-0.086622104 0.10997999 0.07206124 -0.0947507 0.06632054 0.020114934 0.14015298 0.028027683
0.068316355 -0.011660921 0.102871746 0.10143284 0.11769747 0.13741224 -0.05511627 0.05640118
-0.04481996 -0.06669141 -0.091312006 -0.046418063 0.06123461 0.013868677 -0.102512285 -0.108134635
0.11455508 -0.05963934 -0.105784394 0.026576119 0.1251408 0.023331925 -0.004922062 0.06396913
0.033205844 0.12366244 0.017776642 0.0078789815 0.10038565 -0.08866493 -0.11864846 -0.017662562
-0.12953754 0.101298444 -0.05556521 -0.058457587 -0.072570324 0.09901502 -0.11955856 0.040126618
-0.032590467 -0.059636313 -0.09508459 0.08935755 -0.071547315 -0.02249486 0.033763472 0.026284823
0.01966491 0.059137955 -0.068841346 0.0013151873 -0.040011145 0.071617134 -0.124252245 -0.1025014
0.13858406 -0.12519641 -0.055562064 0.045311417 0.08895975 0.04988434 -0.086068355 -0.103230864
0.0036547794 -0.12124127 0.014447766 -0.049419448 -0.01528183 -0.07748223 0.07022694 0.10807056
0.041844457 -0.015548173 -0.10708751 0.009120374 -0.10474699 0.10550728 -0.13194808 0.10198206
0.11885469 -0.14290857 -0.0124237295 0.045642223 -0.095642634 -0.042190965 0.15193906 0.06291089
-0.09984978 0.03596547 -0.005710968 -0.075345255 0.06547723 0.08885123 -0.022731874 0.070699625
-0.08667431 0.092139885 0.009934234 0.108053274 0.053941865 -0.113270275 -0.08498537 -0.023637986
-0.13029961 -0.024656683 0.028170684 -0.110304385 -0.14628169 0.043862537 0.041945223 0.084046856
-0.0031919589 -0.009398659 -0.06591517 -0.08884571 -0.13750298 -0.08384919 -0.039736573 -0.048821867
0.13156147 0.11141697 0.12127724 -0.09056075 0.023463123 -0.024697633 -0.003978952 -0.1530334
0.016704075 0.10544965 -0.0979456 -0.037215725 0.04029966 0.031121302 0.0057205185 0.032798067
-0.13335988 -0.035132173 0.005579276 -0.040058963 0.029178018 0.012790048 0.023133425 0.09535323
-0.108402714 -0.0019581488 0.008577113 0.08688849 -0.072603315 -0.113050744 -0.08526511 -0.004476739
0.0708518 -0.0126927085 0.064423725 -0.010836778 -0.10173612 0.09225498 0.083408765 -0.060841072

bias f4 [25]
00000000: 3311 0c3c f193 58bb 6387 0dbd c2a9 8f3d
00000010: 0dfc 2f3d 86b4 ab3d 3507 423d cc4c 893d
00000020: e2f4 083c 5644 60bd d241 79bd ad43 05bd
00000030: 8e78 31bd ee5a 723d 2d9c 073d c7b8 03bd
00000040: a55a 4ebc e652 bebd 3df6 573d c779 913d
00000050: 0654 09bd 5e73 9cbd 0359 bb3d 9fec 8abd
00000060: 9188 b3bd
0.0085490225 -0.0033047164 -0.034552943 0.070148006 0.042964984 0.083840415 0.047370154 0.06704101
0.008359166 -0.05475267 -0.060853787 -0.032535244 -0.04332786 0.05916875 0.033107925 -0.03215864
-0.0125948535 -0.09293155 0.052725065 0.07103305 -0.033527397 -0.07639192 0.09147837 -0.06783413
-0.08766282

weight f4 [10, 17]
00000000: e668 04be 4d74 f63d f3c7 81be 5346 54be
00000010: 37fd 7f3e e5f1 733e d822 8cbd 55e6 5bbe
00000020: 125e bc3d 869f 783e 6080 633c a4f3 1a3e
00000030: 9086 f13d f79a 5dbe 24de fe3d 9723 593e
00000040: 39dd 0f3e 6000 62bd 4e63 723e f7b2 68bd
00000050: b0ea 2dbe f19f 62bd 7ece 463d 3298 30bd
00000060: 3a1b 343e 6e5e 343e d07e bd3d 1455 80bc
00000070: 1a48 093d 1343 f13d 7b31 6ebe 3550 1bbe
00000080: dec5 3e3e 49b2 003d 7d14 f3bc eee8 5b3d
00000090: 9b48 63be a1b4 b13d 118d 513e af8b 0cbe
000000a0: 5f9f 2f3d ca16 133e 592a dfbd 320e 993b
000000b0: 44b6 2c3e 7bb9 61be 5d62 9d3d 0844 af3d
000000c0: 5915 80be f41a 203e f71a 0abd e719 453c
000000d0: 8d64 cd3c 102c b5bc 322f 31be 4c74 c1bd
000000e0: af98 60be 25c0 303e da96 de3d 441b a13c
000000f0: 2d2e 79bd 0579 363d 3cae 4dbe d45b 6a3d
00000100: da28 cabd c607 8fbc 21be 5e3e 7429 45be
00000110: f0fb bbbd 4173 353d c6d7 febd 2dd0 3ebe
00000120: 879a 8b3b a749 73bd c422 c53d c86e 3a3e
00000130: 1877 9b3d 3557 4dbe 46c3 cb3d f24a 85bd
00000140: 920a 3fbe 8f1b 5f3e dae4 eebc 8167 9d3d
00000150: 4e17 6a3e 6dce c0bb 7a05 be3d 618f ae3d
00000160: b7bd 393e b83f 3a3e c16e 99bd a17f d4bd
00000170: c744 81bd 0c96 803d 79c8 08be ea9f 52be
00000180: fa5a 003e be7e 0e3e 3e3e 083e bc23 30be
00000190: f7c0 0f3d 0c63 4f3d b7b8 dfbb 284d aebd
000001a0: db41 31be bf2b 73be 6fb5 ec3c ff46 083e
000001b0: 8a40 4dbe a0be 703d 47fc 7bbe 5cf9 dbbd
000001c0: 1761 d7bb c102 c8bd 151f 253e bd9d 2a3e
000001d0: 93d0 fa3d dbff d93d 87b7 f5bd 9ffb a8bd
000001e0: 185e 1cbe 3ec2 593e cc1d 073e 0836 84be
000001f0: 7356 b03c 1851 273e 4961 31be 5e57 383e
00000200: 7fe3 1cbe 8e72 133e 0eb6 473e ccb5 3bbe
00000210: 5340 333d aa7f 283e a066 983c 40a2 5b3c
00000220: 404b f03d aa1f 5cbd 2353 a83d 2a7b 54be
00000230: 9b34 64be 54da 5b3e eaee 72be ff41 6b3e
00000240: d7c7 323e d19e c43c f7e7 633e 35e8 37bc
00000250: 5d41 2dbe 071a 56be a1e5 fdbd a1d1 d8bd
00000260: 807e 623e cbcc acbd 3901 203e 2fb3 493e
00000270: a310 5fbe faae 8bbd b2c2 213e f63c d73c
00000280: 9b29 52be d3e6 5a3d 35b7 3abd 59fe 823e
00000290: 594a 7f3b 9d83 cc3d 2c19 163d a543 163e
000002a0: 5808 c83d 55a5 0fbd
-0.1293064 0.12033901 -0.25347862 -0.20729952 0.24998938 0.23822744 -0.068425834 -0.21474583
0.0919763 0.24279603 0.013885587 0.15132004 0.11793244 -0.21641146 0.12444714 0.21204983
0.14049233 -0.05517614 0.23670694 -0.0568113 -0.16984057 -0.055328313 0.04853677 -0.043113895
0.17588511 0.17614147 0.09252703 -0.015665568 0.033516027 0.117803715 -0.23261063 -0.15167315
0.18630168 0.031420026 -0.029672856 0.053688936 -0.22195666 0.0867703 0.20463969 -0.1372516
0.042876597 0.14364162 -0.10896749 0.0046708817 0.16866404 -0.22043411 0.07684777 0.08557898
-0.25016287 0.15635282 -0.033717122 0.012030101 0.02507236 -0.022115737 -0.1730316 -0.0944601
-0.21933244 0.17260797 0.108686164 0.019666322 -0.060835052 0.044549007 -0.20085996 0.05721648
-0.09871073 -0.017459761 0.21752216 -0.19254094 -0.09178913 0.044299368 -0.12443499 -0.186341
0.0042603645 -0.059396412 0.09625772 0.18206322 0.07591075 -0.20052798 0.09949355 -0.06508435
-0.18656376 0.21787857 -0.02916186 0.076857574 0.22860453 -0.005883983 0.09278388 0.08523441
0.18138777 0.1818837 -0.07491828 -0.10375906 -0.06311946 0.06278619 -0.13357724 -0.20568815
0.12534705 0.13915536 0.13304994 -0.17201132 0.035096135 0.050631568 -0.0068274396 -0.0851081
-0.17310278 -0.23747157 0.028895108 0.13308333 -0.20044151 0.058775544 -0.24607955 -0.10740921
-0.0065728533 -0.0976615 0.16125138 0.16661735 0.122468136 0.10644504 -0.11997896 -0.08251118
-0.15270269 0.21265504 0.1319496 -0.25822473 0.021525597 0.16339529 -0.17322268 0.18002078
-0.15321158 0.14399168 0.19503042 -0.18331069 0.043762516 0.1645495 0.018603623 0.013405383
0.11733103 -0.053741135 0.08218982 -0.20750108 -0.22285692 0.21470004 -0.23723951 0.22974394
0.17459045 0.02400151 0.22256456 -0.011224796 -0.16919465 -0.20908366 -0.12397314 -0.105868585
0.22118568 -0.08437499 0.15625466 0.1969726 -0.2178369 -0.068204835 0.15796927 0.026274186
-0.20523684 0.053442787 -0.045584876 0.25584677 0.0038954227 0.09986041 0.0366451 0.14674242
0.097672164 -0.035069782

bias f4 [10]
00000000: 89df 803e 5deb 65bd 06e0 38bb 93ad 17be
00000010: 33fd 393e 488f 323c 9d77 29be 8832 b3bd
00000020: ccc2 5abe a381 51bd
0.25170544 -0.056132663 -0.00282097 -0.14812307 0.18162994 0.010898419 -0.16549535 -0.087498724
-0.21363372 -0.05114902

weight f4 [10, 5]
00000000: 9720 913e 279f a73c a2e4 c13d 4f92 91be
00000010: ca3e c4bd 309d 9f3e eb6d 583e c225 f7bd
00000020: fe06 a83d ec71 a13e 8ac6 bdbe 7f18 893e
00000030: a76b 0dbe fd11 6fbd b88c 7b3e 1c88 adbe
00000040: 4c83 5ebd 1415 df3e 58a9 2d3e 6afb 38be
00000050: b91b ecbd 041f be3e 5e02 3a3e 9b52 983e
00000060: 0737 80be 2f09 f53d 6cae de3d 7490 d03d
00000070: 87a5 dd3e 8107 653e 54d5 a53e 90de 253e
00000080: 7898 2e3e e379 4bbd 32e7 cdbe af8a bfbe
00000090: 9afc 99be 039d 98be 9617 323e a329 293e
000000a0: 9787 16be 96d8 a3be 2dcc e13e 9887 a13e
000000b0: d590 7a3e 55e9 e23e 6d68 89be a887 8ebe
000000c0: 4705 79be 8950 7bbb
0.28345177 0.020461632 0.094674364 -0.28431937 -0.095822886 0.31174612 0.2113568 -0.120677486
0.08204459 0.31532228 -0.37065536 0.26776502 -0.13810597 -0.058366764 0.24565399 -0.33892906
-0.054324433 0.4357077 0.16959131 -0.18064657 -0.11528725 0.37133038 0.18164966 0.29750523
-0.25041983 0.11964642 0.10873112 0.10183802 0.4329035 0.22366144 0.3238932 0.16198182
0.1705035 -0.049676787 -0.4021545 -0.37410495 -0.30075532 -0.2980729 0.1739181 0.1651979
-0.14700161 -0.3200118 0.44101086 0.31548762 0.24469312 0.44318643 -0.26837483 -0.27837873
-0.2431842 -0.0038347563

bias f4 [10]
00000000: efd6 d4be 3b55 b33e 200d 01bd 89ac 643e
00000010: 59c2 87be 1837 16bd 674a 4a3d e319 b4bd
00000020: 9812 ca3e 3f8b 55be
-0.4157023 0.35025963 -0.031506658 0.22331442 -0.26515463 -0.036673635 0.04938736 -0.08794
0.3946731 -0.208539

weight f4 [11, 29]
00000000: 2ba7 8d3d ed36 013e 4b63 2fbe 4f8d ce3d
00000010: e0dd b83d 09dc 92bd 15ae a9bc da01 f739
00000020: f2ca c63d 89b1 2c3d 21ba d43d 694e a83d
00000030: f127 1e3e aed1 eabd 65e6 eabc 2461 873c
00000040: d08e 203d ed24 2abe dc7f b3bd 9c28 c1bd
00000050: 0c9e d8bc e5a5 d6bd 47bc fabc 0b5a 7dbd
00000060: 976c 0cbe abaa 623d b978 373e f9bc 463e
00000070: aa67 43bd 9e08 c2bc 3376 ecbd 7410 eabd
00000080: 140e f13d 2dc3 10be 20e6 40bd aef8 1ebe
00000090: f6f3 b53d 053a 4a3e f7ef b93c 4e89 de3c
000000a0: c199 303e 87bb 033e 002c 46bc eeb4 d73d
000000b0: 8daa 73bd a123 bcbd 8575 e8bc 795c d83c
000000c0: f85d f23c f5f4 003d 85b2 443d 5cd6 2bbe
000000d0: 2448 103e b71e c53d 16cd 0c3e 67bf 1fbe
000000e0: f465 803d 0d3b bf3c 604a 043e bcc8 0f3e
000000f0: d960 05bd e1b6 85bc a41c d1bc 3aaf 3bbd
00000100: 6ef2 933d 41f6 30bd dc04 bcbd d527 253d
00000110: 7f21 6d3d 04f5 99bd d611 61bb 48f2 38be
00000120: 1fb6 5fbd 973a 3a3e c728 2f3e ae72 4bbd
00000130: 0de0 473d 630c b83d 8fc4 093e f0a2 babd
00000140: adb8 d83d ed8d 4c3d 5362 3fbe 7ac0 4abe
00000150: 2fe4 41bc a308 e3bd 9d93 7dbd 03ed 623c
00000160: 1548 30be c700 e5bd bed7 133d 2e50 0c3e
00000170: d51b 903a bb30 d0bd ede7 f8bc a8ff 93bb
00000180: ae4d ddbd 5696 343d d54a c93d 159f 34be
00000190: f821 9dbd 7010 53be 181d d53d b944 cebd
000001a0: 4b56 0d3d df6c 8f3d e230 f6bd 8de5 1a3e
000001b0: f3fe d13d ee25 9f3d e6bd 183e 19f5 533d
000001c0: 36e3 01be 8704 a4bc 872d acbd 432e c13d
000001d0: 26cc 903d 2957 acbd c7a2 b23c 99a9 743d
000001e0: 7a9a e7bb 747c 423d 4f18 4e3d a0f1 babd
000001f0: b97d 46bd 5406 2f3d 088c 98bc e588 05be
00000200: 1386 2cbe 17ed 20be 4d9f 183d 1597 133e
00000210: 1b31 213e ddc6 3ebd 92a9 07be cba8 0dbe
00000220: 9295 b13d 3930 61bd e086 be3c 05b8 00be
00000230: 94d9 b0bd 931a 0bbd cf29 abbd 1d24 343e
00000240: 3d68 09be f999 0d3b dd8f f6bd c5e2 0f3e
00000250: fa42 873d cf19 55bd 4101 29bd 286b f3bd
00000260: d317 953d 2322 d83c 8ba6 0abd fcd8 ff3c
00000270: 63e6 3d3e 1c17 22be 7c6c 68bd 7e0b 3ebe
00000280: 85a6 d7bd 27c8 813d 101b 623d 31ec aebd
00000290: 8e4c 2f3c 49b8 6ebd a469 bc3d b9fa 8b3d
000002a0: 94b0 593d 7a7f 173e 6d55 373e 721f 1e3d
000002b0: a259 1dbe fec4 f63d 078f 893c 034c 93bd
000002c0: dba9 443e 61da afbb 6fb0 19be 09cc 713c
000002d0: 59f4 9b3d 5248 343e 180b 823d abdd f4bd
000002e0: 8a38 0e3e c7ce 023e 581b b93d e102 0dbe
000002f0: 67a4 1f3e 5198 36bd 99c8 fabd 0c55 44be
00000300: 41b4 17be 8bb7 8e3d 4719 52bd aae3 c63d
00000310: 06bb 7e3d a88b 13be c437 e6bc 4cd5 be3d
00000320: 292d ddbd 374f 0e3e 19ca 263e da12 9b3d
00000330: 8e1b b43d 3281 9f3c 3d5a 2e3e 521e cbbd
00000340: d79a d93b f2f8 14bd 7581 e0bc 8243 debc
00000350: c5f7 8d3d b3b1 58be 9e99 ddbc 490c 04be
00000360: 0639 5b3e 4c21 f73c ac91 043e a646 453e
00000370: 6d30 9abd 823a 05be 576c 1dbd d178 0bbe
00000380: 07aa ddbd ce29 b3bd 87a7 a63d feff 813c
00000390: 3ce3 1a3e e624 e6bc 4b85 c4bb f927 f4bc
000003a0: ab3f 29be c4ed 723c c757 293e 7843 d03c
000003b0: 002a c23c caab 973d a3c1 04bd 6c04 85bd
000003c0: bad1 a03b 4cad b43d 4468 ca3d 947f a93b
000003d0: ffeb 33be 7711 29be d5fe c63d 05cf 353e
000003e0: b8e5 e1bd 9050 97bd 0fd4 f13d cefb 20be
000003f0: 75e0 e8bd 1f04 55be 4c44 043e 700d 163e
0.069166504 0.12618609 -0.17127721 0.10085546 0.09026694 -0.071708746 -0.020712892 0.0004711289
0.097066775 0.0421615 0.10387064 0.082180806 0.15444924 -0.114657745 -0.028674314 0.016525812
0.039198697 -0.16615649 -0.087646216 -0.09431574 -0.02644255 -0.104808606 -0.030607356 -0.06185345
-0.13713299 0.055338543 0.17917146 0.19408025 -0.047706284 -0.02368575 -0.11545982 -0.114289194
0.11770263 -0.14136954 -0.047094464 -0.15524551 0.088844225 0.19748695 0.022697432 0.027165081
0.17246152 0.12864505 -0.012095451 0.105325565 -0.05948882 -0.09186483 -0.02837635 0.026411282
0.029585823 0.03148361 0.048021812 -0.1678099 0.1409002 0.09624999 0.13750109 -0.15600358
0.06269446 0.023343587 0.12918997 0.14041418 -0.032563064 -0.016322555 -0.025526352 -0.045821406
0.07223974 -0.043203596 -0.09180614 0.04032119 0.057893272 -0.07517436 -0.0034342906 -0.18061173
-0.054617044 0.18186413 0.17105399 -0.049669914 0.048797656 0.089867376 0.13453887 -0.09113109
0.10582099 0.04994004 -0.18689851 -0.19799986 -0.011834188 -0.11085632 -0.061908353 0.013850453
-0.17214997 -0.11181789 0.03609442 0.13702461 0.0010994623 -0.101655446 -0.030384028 -0.0045165606
-0.10805832 0.044088684 0.09828726 -0.1763881 -0.07672495 -0.20611739 0.1040594 -0.100717016
0.034506124 0.070031874 -0.120210424 0.15126629 0.10253706 0.077709064 0.1491619 0.051747415
-0.1268433 -0.02002169 -0.08407121 0.09432652 0.07070188 -0.08415062 0.021806134 0.059732053
-0.0070679756 0.04748197 0.05031615 -0.091281176 -0.048459742 0.042730644 -0.01862146 -0.13040502
-0.1684802 -0.15715443 0.037261296 0.14413102 0.15741388 -0.04657637 -0.1324828 -0.1383392
0.086711064 -0.05497763 0.023257673 -0.12570198 -0.0863525 -0.03396089 -0.08357584 0.17591901
-0.1341867 0.0021606667 -0.120391585 0.1405135 0.06604572 -0.052026566 -0.04126096 -0.11885673
0.07279935 0.026383465 -0.033850234 0.031231396 0.18544917 -0.15829128 -0.056744084 -0.18559071
-0.10529808 0.06337004 0.05520159 -0.08541144 0.010699404 -0.058281217 0.09199837 0.06834931
0.053146914 0.14794722 0.17903681 0.038604207 -0.15366223 0.12049292 0.016791834 -0.071922325
0.1920542 -0.005366609 -0.1500871 0.014758118 0.07614965 0.17605713 0.06349772 -0.11956342
0.13888755 0.12774192 0.090384185 -0.1377063 0.15590058 -0.044578854 -0.12245292 -0.19173068
-0.14814855 0.06968602 -0.051293638 0.09711392 0.06219008 -0.14408743 -0.028102763 0.09318027
-0.10799629 0.13897406 0.16288032 0.07571955 0.08794318 0.019470785 0.1702661 -0.099178925
0.006640773 -0.036370225 -0.02740548 -0.0271318 0.06932024 -0.21161537 -0.02705079 -0.12895311
0.21408471 0.030167244 0.12946194 0.19265231 -0.07528768 -0.130106 -0.0384334 -0.13620307
-0.10823446 -0.08748208 0.08137422 0.015869137 0.15125746 -0.028093766 -0.005997335 -0.029804217
-0.16528194 0.014827196 0.1653739 0.025422797 0.023701668 0.07405813 -0.03241123 -0.06494984
0.004907814 0.08822116 0.09883168 0.005172679 -0.17570494 -0.16510569 0.09716574 0.17754753
-0.110301435 -0.07388413 0.11808025 -0.15721056 -0.11370937 -0.20802353 0.12916678 0.14653563

bias f4 [11]
00000000: 2a38 183e c59e ca3d cfa2 27be 903d dabd
00000010: 84dd fdbd dacc 0cbe 214f 07be cf94 da3d
00000020: 5a08 d53d 6b10 26bd 3ed2 193e
0.14865175 0.09893564 -0.163707 -0.10656273 -0.123957664 -0.1375002 -0.13213779 0.10672914
0.104019836 -0.040543 0.15021607
